Parameters/ethan_test_8_channels_85_71.pt (torch, 81452 bytes, 26 tensors)

branch1.0.weight f4 [12, 8, 4]
000000 9c 6c 88 bd d0 04 42 bc a4 b0 22 3e fa b7 f4 3d
       -0.066613406 -0.011841968 0.15887696 0.11949153
000010 1c 8b cb 3d a9 44 f1 3d 5b e2 eb 3d 25 b7 23 be
       0.099386424 0.11780674 0.11517783 -0.15987833
000020 f3 81 4f 3d be b3 f0 bd 35 9c 3d be 7f 46 6a bd
       0.05066104 -0.11753033 -0.1851662 -0.057196137
000030 2a 3f b9 bd 28 44 7f 3c 02 ed 1e bc 1e 74 39 be
       -0.09045251 0.015580215 -0.009700062 -0.18110701
000040 c5 65 e9 bd ee 82 7f 3c 3b 35 ae bd be cb 27 be
       -0.11396364 0.015595181 -0.08506247 -0.16386315
000050 2e ea 37 be 42 ed 4a be 7f 50 84 bc ed fc 13 bc
       -0.17960426 -0.19817069 -0.016151665 -0.00903247
000060 9a 17 30 be 15 0a df 3c b7 f3 db bd 42 ca e4 bc
       -0.17196503 0.027226487 -0.10739844 -0.027928475
000070 ef 69 71 3c 41 20 da 3d 30 91 ad bd 1a 15 8c be
       0.014734729 0.10650683 -0.08474958 -0.2735985
000080 3d cb c0 bd cd eb 70 3e d2 7e 48 bc 8d da 8d 3e
       -0.094137646 0.23527451 -0.012237268 0.27705804
000090 ae 8a a0 3c 73 3d 86 3d 93 35 79 3c 1b e2 2e bc
       0.019597378 0.06554689 0.015210527 -0.010674025
0000a0 b7 fd 8a be e6 0a 1a be c7 2a ea 3d 6a 26 87 3e
       -0.27146694 -0.1504322 0.114339404 0.26396495
0000b0 6c ed ae 3d 7f 2b 56 3d 28 7d ad bd da f1 42 be
       0.085413784 0.052287575 -0.08471137 -0.19037572
0000c0 63 c6 96 bd 33 ea 26 bd a1 fe 72 3d 9f 65 73 3d
       -0.07362058 -0.040750694 0.059324864 0.059423085
0000d0 bf 01 da bd 44 9c 47 3c ad 92 49 3e 0b 7d 30 3e
       -0.10644864 0.012183253 0.19684859 0.172352
0000e0 4d 2d e0 bb cd 0c 7b 3e 07 fe 35 3e 07 b7 18 3e
       -0.006841338 0.24516602 0.17772685 0.1491357
0000f0 49 27 2a 3e 3f 7f 40 3e a1 8d 1f bb e1 95 33 bc
       0.16616549 0.1879854 -0.0024345892 -0.010961027
000100 fb eb 5a 3d d7 fc 28 3e 39 0c a5 3d 89 c3 27 3e
       0.053447705 0.16502701 0.08058972 0.16383184
000110 87 39 4f 3e 59 48 38 be e9 53 86 be b1 64 24 be
       0.20236789 -0.17996348 -0.26235893 -0.16054036
000120 b5 5e 79 3d 1d a4 93 bc 1e f3 02 bd df 63 8d bd
       0.060881335 -0.018022591 -0.031970136 -0.069038145
000130 22 e2 cd 3a ef ec af be e7 ed 39 bd da ff 6b be
       0.0015707652 -0.34360453 -0.045392897 -0.23046818
000140 55 87 33 be 64 76 3f be e7 21 23 3c dc 3d b0 3d
       -0.17532094 -0.18697506 0.009956813 0.08605549
000150 14 70 ad bd cb b4 04 bd d9 36 03 3e 0e e0 12 3e
       -0.08468643 -0.03239898 0.12813891 0.14343283
000160 64 67 c9 3d fd d5 c4 3c e7 8f a2 bd 8f 9b 22 3e
       0.09834173 0.024027819 -0.079376034 0.15879653
000170 64 b6 39 be e6 3e 14 be bf ef 0d be 16 78 aa bd
       -0.18135983 -0.14477119 -0.13860987 -0.08323686
000180 bf f2 61 bd 46 80 1c 3c 77 b3 83 bc ef 69 3c be
       -0.05516314 0.009552067 -0.016076786 -0.18399785
000190 39 54 2e be 95 a0 96 be 06 26 6c be 12 f0 96 bc
       -0.17024316 -0.2941939 -0.2306138 -0.018425021
0001a0 3b 6b 25 be c0 8d e4 bd da 7b 33 be e0 62 f5 3d
       -0.16154186 -0.11159849 -0.17527714 0.119817495
0001b0 51 39 bd bd d6 97 bf 3d 4d c8 a1 bd ac 8c 19 3e
       -0.09239448 0.09355132 -0.078995325 0.14995068
0001c0 5f 6a 4c 3e 70 50 45 3e 3d 1a 84 bd 8b 4b cc 3d
       0.19962452 0.19268966 -0.06450317 0.09975346
0001d0 55 f7 9d be 5f c6 34 3c 1f ef 0f bc 30 a2 51 3d
       -0.30852762 0.0110336235 -0.008785038 0.051180065
0001e0 e9 da 21 3d 7c 38 21 3e 1b d8 96 3d 1f 5a c0 3c
       0.03951541 0.15744203 0.073654376 0.023480473
0001f0 d9 8c 52 3e a4 e5 4b 3e 38 fd a7 3e 1f 33 a2 3e
       0.20561542 0.1991182 0.32810378 0.31679627
000200 a7 83 aa bc b0 40 20 be c6 e9 82 bd 5b de 73 3d
       -0.02081473 -0.15649676 -0.06392245 0.059538227
000210 8f bb 08 3d 07 53 62 bd 04 e2 60 3e 97 64 f4 3b
       0.033381995 -0.055254962 0.21961218 0.0074582803
000220 14 69 da bd f3 94 1d be c0 a8 0e bd 28 16 a5 3d
       -0.10664573 -0.15388851 -0.0348289 0.080608666
000230 a5 72 89 3b f4 b6 03 be 14 fb 1b 3e 50 48 e6 3c
       0.004194575 -0.1286276 0.15232497 0.028110653
000240 ba d5 73 3d df 96 73 3e 88 f3 b0 3d 50 c0 81 3e
       0.059529997 0.23788022 0.086402 0.25342035
000250 21 f8 98 3e 12 71 97 3e fe 7d 0e 3e 5c cc 40 be
       0.29876807 0.29578453 0.1391525 -0.18827957
000260 b3 75 8c 3c 10 67 11 3e d1 73 bf 3d 7c 9b 96 3c
       0.017145967 0.14199471 0.09348262 0.018384688
000270 1c 65 fb 3d b2 57 65 3e a8 f9 9e 3d 4b ff 98 bc
       0.122751445 0.22396734 0.07762462 -0.01867642
000280 ba 67 51 bd fe 30 8d 3d bb 7b 20 3e 44 fd 77 3e
       -0.051124312 0.0689411 0.156722 0.24217707
000290 84 20 11 be 92 40 41 bd 67 e0 66 bd b1 33 07 be
       -0.1417256 -0.04718072 -0.05636635 -0.13203312
0002a0 64 ff 05 3d 0f 99 35 3e 14 74 cc bc 08 f1 78 3e
       0.032714263 0.17734168 -0.024957694 0.24310696
0002b0 aa 36 96 3d 27 34 0b bd 8d c3 ac be c6 2e 0b be
       0.07334645 -0.033985283 -0.33742943 -0.13592061
0002c0 7c 28 1d be a9 cb ba bd 8f 48 34 bd 42 82 71 bd
       -0.15347475 -0.09120876 -0.04401451 -0.058962114
0002d0 7b 97 db 3c 27 9b 68 bd ff 30 a2 bc 9f b9 3b bc
       0.02680563 -0.05678859 -0.019798754 -0.01145783
0002e0 e9 b2 95 bd 40 53 4c be 31 07 11 bd ac 40 f1 3d
       -0.07309515 -0.19953632 -0.03540725 0.11779913
0002f0 53 fb ad bb f2 f7 df 3d 40 3e 82 3c fe b8 62 bc
       -0.005309501 0.10935964 0.015898824 -0.013838051
000300 15 4b 95 3c 1f bf cc bd 77 17 43 be b4 c3 d6 bd
       0.018224278 -0.09997391 -0.1905192 -0.10486546
000310 60 a9 5f be 4e 46 40 bd 1b 4c 16 3e b3 2d 4c 3e
       -0.21841955 -0.046942048 0.1467747 0.19939308
000320 87 f1 ff bd 27 a8 68 3e fa 64 64 bd 4e 35 23 3d
       -0.124972396 0.22720395 -0.05576036 0.039845757
000330 6f 9d 50 be bf ed 2d 3e 66 f8 d7 3c 9c 20 84 3e
       -0.20372556 0.16985224 0.026363563 0.2580613
000340 db 2c 3e be 63 58 a9 3d db fe 41 3d 32 12 25 3d
       -0.18571799 0.082688116 0.04736219 0.040300556
000350 38 09 24 3c f8 c0 73 3e 3b b0 a1 3d 08 2f 00 be
       0.010011964 0.2380408 0.078949414 -0.12517941
000360 69 94 56 3e 7b 71 ff 3d 4d db 10 be 37 4a 02 be
       0.20955051 0.124728166 -0.14146157 -0.12723623
000370 9b bc d1 be 41 e8 81 be 10 0c 2b bb ad 08 e1 3c
       -0.40964207 -0.25372508 -0.002609972 0.027469957
000380 92 b4 cc bc 87 4a 0a 3e 58 11 a6 3d c7 52 a2 3c
       -0.024988446 0.13504992 0.08108777 0.019814862
000390 43 5f 89 3d 09 d0 ec 3d cc 15 aa 3d ec e5 82 be
       0.06707623 0.11563117 0.08304939 -0.2556604
0003a0 22 f8 48 3e 4d 30 70 3e 7b 6d de 3d 72 d4 3d be
       0.19625905 0.23455925 0.108607255 -0.18538073
0003b0 b3 72 d9 bd 70 94 4c be fa a4 5a be d8 13 14 be
       -0.1061758 -0.199785 -0.21351996 -0.14460695
0003c0 b2 5c 30 bd dd 59 01 3e 13 04 d3 bc 51 c1 8d 3d
       -0.04305715 0.12631936 -0.025758779 0.06921638
0003d0 a7 1e ab 3d ee 90 c6 3d 6b 9b 78 3e 3d 9d a7 3c
       0.08355456 0.09695612 0.24278037 0.02046072
0003e0 02 53 18 3e 32 69 6d 3e f5 9d 85 bd e3 53 26 3d
       0.14875415 0.2318466 -0.065242685 0.040607344
0003f0 64 0c 38 be 28 44 42 be 89 0c a0 bd 77 24 71 3e
       -0.17973477 -0.18971312 -0.07814891 0.23549066

branch1.0.bias f4 [12]
000000 b2 fb 23 bd 72 31 c9 bd 87 76 a2 3d 3c 1e ab bd
       -0.040034957 -0.09823884 0.079327635 -0.08355376
000010 a3 a3 85 bc f5 58 1d 3e 24 6d 3d be 45 6a e4 bd
       -0.01631338 0.15365966 -0.18498665 -0.11153082
000020 42 e2 f9 bc 83 45 17 be 9c 52 4c bd 38 9a b7 bd
       -0.030503396 -0.1477261 -0.04988347 -0.08964962

branch1.4.weight f4 [32, 12, 7]
000000 8e 2b 7f 3d 35 83 8f bd ea db 00 be e9 22 81 bd
       0.062297396 -0.07007448 -0.1258389 -0.06305487
000010 68 07 e7 bd d8 81 e2 3a 89 4d cb 3c a6 4f 40 3e
       -0.112807095 0.0017281128 0.024817245 0.18780383
000020 d8 60 89 3c 6b 2e 47 bd 06 83 3f bd e5 8c fa bd
       0.016769812 -0.048628252 -0.046755813 -0.12233905
000030 94 1b ca 3d 21 2c 0a 3e 53 6c 89 3c b3 51 26 3d
       0.09868541 0.13493396 0.016775286 0.04060526
000040 29 a2 5e bd 5d 66 0f 3e 07 c5 d0 bd 06 4e f2 bc
       -0.054353867 0.14003892 -0.1019383 -0.02957822
000050 d2 f8 8d 3c cc df 40 3e 68 b2 55 bc 13 96 78 be
       0.01733056 0.18835372 -0.013043024 -0.24275999
000060 88 92 1b be 16 c8 91 3d ad 41 a5 3d f9 a3 b3 3b
       -0.15192616 0.071182415 0.08069167 0.0054821935
000070 cf 78 52 3d 42 72 b3 bd 44 69 b2 bd bc 36 aa 3d
       0.051384743 -0.08762027 -0.08711484 0.08311221
000080 5f f9 23 bd ed c5 09 3e e7 09 40 3e d4 d2 8e bd
       -0.04003274 0.13454409 0.18753777 -0.06973806
000090 e3 66 cc 3d 5a 18 e5 bd 7a 65 2c 3e f5 58 f1 bd
       0.099805616 -0.11186285 0.16835585 -0.11784545
0000a0 76 c0 be 3d 6e 5f 0a be 62 d7 77 be 38 7d f3 bd
       0.09314053 -0.13512966 -0.24203256 -0.11889118
0000b0 d8 f5 f5 3d 95 2f 18 3d 8f d4 7a be 98 70 48 be
       0.120097816 0.037154753 -0.24495147 -0.19574201
0000c0 88 d4 d3 bd 4a 64 45 be 75 d7 32 3e 09 bf 48 3e
       -0.103432715 -0.19276538 0.17465003 0.19604124
0000d0 85 78 84 3e ce 07 c1 bd 4a ba 49 bd 2f 95 7d be
       0.258732 -0.09425317 -0.049249925 -0.2476394
0000e0 2c 37 3d be eb 75 4d be 10 c5 a5 bd 3b 0c b5 bd
       -0.18478078 -0.20064513 -0.08094227 -0.088402234
0000f0 09 73 54 3d e8 09 3f be e2 b2 a3 bd 9d c4 8e bc
       0.05186752 -0.18656123 -0.079931036 -0.017427737
000100 08 ec a7 3d f6 cd b2 bd fd ef a5 bc 34 e0 9b bd
       0.08199316 -0.0873069 -0.020256037 -0.07611123
000110 4f 26 33 3d 35 78 a1 bd ae 0c f0 bd 4c c4 f7 bd
       0.043737706 -0.07884256 -0.117211685 -0.120979875
000120 50 50 bb bb a3 2c fe 3c b5 eb 06 3d b9 66 05 be
       -0.005716361 0.031027144 0.03293963 -0.13027467
000130 35 b6 cb bc c9 66 87 3d ce 89 ff 3d 54 c4 49 be
       -0.024867157 0.066114016 0.12477456 -0.197038
000140 0e 4b 28 be 27 01 31 be ef 3d e6 b9 2c 8b a3 3d
       -0.16434881 -0.17285596 -0.00043915163 0.07985529
000150 3c cd 0e 3d af 6d 24 3e 3f 39 25 3e 62 59 40 3e
       0.034863696 0.16057466 0.16135119 0.18784097
000160 1b 74 ef 3c a9 a1 d3 bb c8 a1 e4 bc 25 d6 4d bd
       0.029230168 -0.0064584804 -0.027909175 -0.050253052
000170 3f f6 2e bd 99 59 31 bc 63 64 5c 3e a6 7a 06 3e
       -0.042715307 -0.010824584 0.2152267 0.13132724
000180 a3 97 1b bd 45 ec 72 be b9 ce 59 3c 35 7c 16 3d
       -0.03798641 -0.23722942 0.013293915 0.036739547
000190 21 0c 33 bd 30 b0 d2 3d 4a de ef 3d dd b0 3a 3e
       -0.04371274 0.10287511 0.1171232 0.1823153
0001a0 7f 31 55 3c ba 98 19 be 71 f4 c3 3d 11 27 41 3e
       0.013012289 -0.14999667 0.09568108 0.18862559
0001b0 7b c7 2d 3d d0 62 60 be fc 81 73 be 9f 87 2b be
       0.042426568 -0.21912694 -0.23780054 -0.16750954
0001c0 70 cd d2 3c c3 fc 1a be b1 89 60 bd cc 98 1d bd
       0.025732726 -0.15135483 -0.054818813 -0.038475797
0001d0 c0 26 87 3d 9d 7f 06 be de fa 83 bd 7a fc 35 3d
       0.06599188 -0.13134618 -0.064443335 0.044430234
0001e0 00 bd 9e 3d 75 01 9c bc f9 b3 42 3e 6e be 07 3e
       0.07750893 -0.019043664 0.19013967 0.13256237
0001f0 70 78 b5 3d 84 75 a3 3b 35 81 32 3a b5 99 89 3d
       0.08860862 0.004988374 0.00068094145 0.067187704
000200 74 ed 94 bc 05 d4 25 bc 1c e1 39 bd ac 52 03 3e
       -0.018179633 -0.01012135 -0.045380697 0.12824506
000210 7e 17 21 3e 8d 91 03 3e 49 fd a6 3c 14 4b 09 be
       0.15731618 0.12848492 0.020384448 -0.13407546
000220 c5 6c 26 be 2a 8a fd 3d b0 8c 12 3e 5e 6d 95 bd
       -0.1625243 0.12379868 0.1431148 -0.07296251
000230 a4 2d d7 3d f5 76 98 3d 65 fc 1c 3e b7 60 d3 bd
       0.10506752 0.07444564 0.15330656 -0.10321181
000240 dc 22 a9 bd 39 43 21 3d ff 09 02 3e 36 c6 0d 3e
       -0.08258602 0.03937075 0.12699126 0.13845143
000250 ae 9c 8d 3d 34 1b e0 3d 34 d4 0e 3d 4c 22 14 bc
       0.0691465 0.109426886 0.03487034 -0.00904138
000260 95 60 80 3d 1f 92 ea bd 7e 34 e9 bb f0 ba 83 3d
       0.062684216 -0.11453652 -0.0071168533 0.0643214
000270 04 ba 5d bd c4 57 0c 3e 12 8d 55 3e fc 7a 11 3e
       -0.054132476 0.13705355 0.20854595 0.14207071
000280 f9 19 c6 3b 69 0c a6 3d ed 87 97 bd 67 18 b4 3d
       0.0060455767 0.08107836 -0.07398973 0.08793717
000290 4b 2c 21 bd eb 74 41 3c 5d 24 a8 bd 5b 35 11 3c
       -0.03934888 0.011807661 -0.08210061 0.008862819
0002a0 4a 97 ad 3d a7 fd ec 3d 3c f0 50 3c ca 13 8f bd
       0.08476122 0.11571818 0.012752589 -0.06986196
0002b0 37 33 86 bd f9 e1 17 bd 01 d5 f0 bd 4d 26 a1 3d
       -0.06552737 -0.03708074 -0.11759377 0.078686334
0002c0 74 7c cb bc 55 c2 24 be 54 c6 af 3c 07 51 97 3d
       -0.024839617 -0.16089757 0.021456875 0.073885016
0002d0 95 cf 9e 3e db 2b 77 3d c3 af 29 be d9 c4 82 3c
       0.31017748 0.06034456 -0.16570954 0.015963005
0002e0 e9 1b bd bd 7b 1e ad 3d e2 af 89 bd 2f 25 bc 3d
       -0.09233839 0.08453079 -0.06723 0.0918678
0002f0 7e 34 a1 bc 06 a0 e8 bc 9e 9a 30 be 5d bb f9 bd
       -0.01967835 -0.028396618 -0.17246482 -0.1219394
000300 cc 1a 06 be e9 51 ef 3c 4d dd 8d 3e 50 cf 90 bc
       -0.1309616 0.029213862 0.27707902 -0.01767698
000310 c7 82 b6 3b 26 cf 53 bd 56 30 45 be ab 9b 72 bd
       0.005569789 -0.051711224 -0.1925672 -0.059230488
000320 24 00 53 bc 5c 57 e5 3d 48 77 7d 3e 9a 7a 51 3d
       -0.0128784515 0.11198303 0.24752533 0.051142313
000330 88 ac e3 3d 3f 99 5a bb 34 89 20 be b3 93 e6 bd
       0.11116892 -0.0033355502 -0.15677339 -0.1125864
000340 38 aa 06 be f7 dd ab 3d 08 f9 d3 3d 96 ba e0 bd
       -0.13150871 0.08391946 0.10350233 -0.109730884
000350 ee 2d 04 3e c4 01 02 be c6 45 18 be b3 eb 77 bb
       0.12908146 -0.12695986 -0.14870366 -0.0037829697
000360 ae a2 f8 3d 2d 24 86 bc 47 18 07 bd 27 cf 9b 3d
       0.12140404 -0.016374672 -0.032982137 0.076078705
000370 6f 4f 01 3e be 66 fc bd b0 78 c0 3d be 64 d1 3d
       0.12627958 -0.12324284 0.09398019 0.10224293
000380 57 fa 4b be 7a 86 d0 bc d8 88 83 bc 89 38 04 3e
       -0.19919716 -0.025454748 -0.016056463 0.12912191
000390 1c fb ae bd ab 88 81 3d 11 89 dc bc 78 8c d8 3c
       -0.08543989 0.063248955 -0.026920827 0.026434168
0003a0 85 66 19 bc 80 27 91 bc 2f df 75 bd d9 78 ab bd
       -0.0093628215 -0.01771903 -0.060027298 -0.08372659
0003b0 e5 f8 57 3e 81 ed 31 3d f1 e0 f7 bd 11 0e 78 3c
       0.2109104 0.043439392 -0.12103451 0.015140072
0003c0 1d 21 92 bc 8a ad a5 3c 85 99 6c 3c 69 8b 32 3e
       -0.017838055 0.020224351 0.014440899 0.17435993
0003d0 4f 5c 07 3e dd d8 db bd f9 4e 96 3d 6c c9 1f be
       0.13218807 -0.10734723 0.073392816 -0.1560418
0003e0 8b 71 1a be 04 0b c9 bc 30 f3 2d 3e 1c af 08 3e
       -0.15082376 -0.024541385 0.169873 0.13348049
0003f0 21 86 8b bd c1 17 79 bc 80 cb 03 3e 6d 9b 82 3d
       -0.068126924 -0.015203417 0.12870598 0.06377301

branch1.4.bias f4 [32]
000000 bf 84 07 bc 91 94 7f bd 0e d0 5a bd 49 b2 b6 bd
       -0.008271395 -0.062397543 -0.053421073 -0.08920724
000010 3d ad 6d 3d 92 f5 aa bc 17 12 d2 3d a2 78 13 3d
       0.05802654 -0.02086905 0.102573566 0.036003716
000020 93 4f 49 3d 32 d8 2b bd d2 b6 b7 bc 71 30 04 bd
       0.049148154 -0.041954227 -0.022426043 -0.03227276
000030 ee 42 5b 3c b4 34 cc bc 1a b2 54 3a 01 1e 1f bd
       0.0133826565 -0.024927475 0.00081136974 -0.038846973
000040 68 17 b2 3c 4b 21 4b bc 99 99 05 3d 73 7e 83 bd
       0.021739677 -0.012398074 0.032617185 -0.06420603
000050 8b 3f 83 bd 0d 15 54 bc 97 24 a1 bc ef 73 11 be
       -0.06408604 -0.012944472 -0.019670768 -0.14204381
000060 ff fd 4e bd 64 59 fc 3d b3 6d 02 3d 0d af 21 3d
       -0.0505352 0.123217374 0.0318429 0.039473582
000070 bf 3d e7 3d 67 64 89 3c b8 3d ae 3c a1 84 28 3e
       0.11291074 0.016771508 0.021269664 0.16456844

branch2.0.weight f4 [24, 8, 6]
000000 fc f7 14 3d 9a 02 1a 3e cf ff 82 3d 67 f1 2f 3e
       0.03636931 0.15040055 0.06396448 0.17181931
000010 0c b6 c9 3b 69 f8 55 bd b0 10 ef bd 97 01 e2 3d
       0.006155735 -0.052238856 -0.11673105 0.110354595
000020 8f 50 dd 3d 1e c5 de bc 15 ec f2 3c 69 35 50 be
       0.10806381 -0.027193602 0.029653588 -0.20332874
000030 c9 7f 8f bd 99 29 72 3d 6e 0b 85 bd 1d 76 83 bb
       -0.07006795 0.059121702 -0.06496321 -0.004011883
000040 be 19 4b bd 2b 90 5d 3d fb 1e 8f bd 7b 00 b7 bd
       -0.049585097 0.054092567 -0.06988331 -0.089356385
000050 67 01 0e 3d ac 5a 07 be 78 b9 8b bd 27 ea 29 be
       0.034669306 -0.13218182 -0.06822485 -0.16593228
000060 70 8a 80 3d b8 8b d4 3d 35 e4 37 be 75 9a 80 3b
       0.06276405 0.10378212 -0.17958148 0.0039246627
000070 2e 65 bd bd fc 40 10 be de 3d e1 b9 fa 3b 20 3e
       -0.09247814 -0.1408729 -0.0004296144 0.15647879
000080 c0 5b 34 3e 48 b9 20 3e ac db b9 3d 69 91 20 3e
       0.17613125 0.15695679 0.09075102 0.1568047
000090 2f fc 8b 3e fb 84 93 3e a5 ce 9e 3c 08 2a a1 3d
       0.27340838 0.28812394 0.019385645 0.07869345
0000a0 56 cd 5a bd 50 2e ea bd 62 e8 da 3d 90 33 19 3e
       -0.05341848 -0.11434615 0.10688855 0.14961076
0000b0 8a e2 99 bd 05 b0 a5 bd ca 74 9f bd 8a d9 52 be
       -0.07513912 -0.08090214 -0.077859476 -0.20590797
0000c0 7c 67 66 3e 59 1b 8f bd 66 42 60 bd d2 eb 81 3d
       0.22500414 -0.06987638 -0.054750822 0.06343807
0000d0 f2 e3 43 bd ba 0d b8 3d bd 29 38 bd b7 f2 a5 3c
       -0.047824807 0.08986993 -0.04496168 0.020257337
0000e0 28 05 26 3d b6 5c 6d be 8b b4 48 be ce b2 1e be
       0.04053226 -0.23179898 -0.19600122 -0.15497896
0000f0 52 41 bf 3d fe 14 82 3c bb 71 64 be 1f a1 5c be
       0.09338631 0.01587915 -0.2230901 -0.21545838
000100 ea 05 2e be b7 d4 07 be b2 d9 17 be 2c ea bf bd
       -0.16994444 -0.13264738 -0.14829138 -0.093708366
000110 2d 5f e3 bc 1e a7 8d bd b6 62 cc bd 2c 51 15 ba
       -0.027755344 -0.06916641 -0.09979765 -0.00056959945
000120 bf 1c 63 3c 23 59 05 3b cd 09 ba bd 84 e9 c2 3d
       0.013861834 0.002034732 -0.090839006 0.09517196
000130 7c 51 8b bd 36 a2 5b 3c 40 11 01 3e c1 67 56 3e
       -0.06802651 0.013405373 0.12604237 0.20938016
000140 ff 9a 8a 3e 05 8c 41 3e e7 2e 57 3d b2 75 85 3d
       0.27071378 0.1890107 0.052534964 0.06516589
000150 5f 8a 7f 3e eb bf fa 3d 32 c4 83 bd 50 eb 11 bc
       0.24955128 0.12243637 -0.06433906 -0.0089062005
000160 d1 8a 1d 3e 6c f7 53 bd 51 a1 7e 3d 35 4e 07 be
       0.15384986 -0.05174963 0.062165562 -0.13213427
000170 91 d8 c4 bd 4b 9a 9e 3d a9 c3 cb bd 2a 6b 5b 3d
       -0.09611619 0.07744273 -0.099494286 0.053568996
000180 a4 71 fa bd c1 ee fb 3d 5e bc 6b bc 40 01 5e 3d
       -0.122287065 0.12301398 -0.014388172 0.05420041
000190 fa 71 64 3e a6 e0 00 3e f1 77 cf 3d 16 9e b4 3d
       0.22309104 0.12585697 0.10130299 0.08819215
0001a0 ce de e0 3b d9 b2 0e bd 0e 73 db 3d 5b ec 80 3e
       0.006862498 -0.03483853 0.10715304 0.25180325
0001b0 de 80 59 bd 7e 2f 9e 3c 41 19 1f 3d 0e ce 3c bc
       -0.053101413 0.019309755 0.038842443 -0.011523737
0001c0 d0 8a a8 bc b7 09 9b 3c 72 24 46 3e f8 69 31 3d
       -0.020574003 0.01892553 0.1934984 0.04331395
0001d0 53 f7 5a 3d 87 28 60 bd 9d 4c 3b bd 57 84 5d bb
       0.053458523 -0.05472615 -0.04572736 -0.0033800805
0001e0 fc 38 ec 3d 8b a4 23 bd db 22 9e 3d 92 b1 1e bd
       0.115343064 -0.039951842 0.07721492 -0.038743563
0001f0 20 e0 4f 3d b8 20 f9 3d 09 b1 0c bd bf d6 49 be
       0.05075085 0.12164444 -0.03434852 -0.19710825
000200 2d d3 06 be 26 8f 4c 3d de 38 61 3e f2 31 89 3d
       -0.13166495 0.049941204 0.2199435 0.066989794
000210 f1 07 97 bd 38 24 24 3d 4b b3 06 3e 1f f3 29 3e
       -0.073745616 0.040073603 0.13154332 0.1659665
000220 6e 7b 35 3d f2 f6 ef 3d cc 18 e0 bd aa 35 cb bd
       0.044307165 0.11717023 -0.1094223 -0.09922345
000230 7f 2d 89 bd ac 72 d9 3c 56 81 8e 3b 73 06 9b bc
       -0.06698131 0.026543938 0.004348914 -0.018923974
000240 1b 84 34 bc c7 b7 8d bd 60 58 06 be 05 e0 97 3d
       -0.0110178245 -0.06919818 -0.1311965 0.07415775
000250 6d 5f e3 3b 34 8d 6b 3d 8b b8 32 3e dc dd d2 3d
       0.006938866 0.05750771 0.1745321 0.102962226
000260 a8 c0 1c be a0 74 b7 bd a6 5a 10 3e f6 f4 d2 3d
       -0.15307868 -0.08957791 0.1409708 0.10300629
000270 6b 6b af 3d 63 e8 4d 3d 5f 00 a9 3c 15 4c 29 3e
       0.0856541 0.05027045 0.02063006 0.16532929
000280 a3 63 95 3e e7 14 5e 3e 17 a5 40 3e 72 2e 2b 3e
       0.2917758 0.21687661 0.18812977 0.16716936
000290 2e ab f6 3d 6a 28 de 3d 77 9c ae ba 4b 7d 28 3e
       0.12044369 0.10847552 -0.0013321777 0.16454045
0002a0 cc 85 2e be 57 65 3e 3d e9 92 e4 3c c1 e9 3f bd
       -0.17043227 0.046483364 0.027902083 -0.046853784
0002b0 ab 69 58 3d 0d 0d a6 3e 90 ce 25 3e f7 4b d2 bd
       0.052835148 0.32431832 0.16192079 -0.102683954
0002c0 33 15 0f be a8 38 a5 3d c7 3a d4 bb 32 a3 21 3e
       -0.1397293 0.08067447 -0.0064767334 0.1578491
0002d0 77 1c cd 3c 0b bf 05 be 35 c6 38 be fe e9 94 3d
       0.025037987 -0.13061158 -0.1804436 0.07271193
0002e0 c7 5c 53 3d 39 88 14 3e 2e f0 8c bd 0d ac 0e bd
       0.05160215 0.1450509 -0.06881748 -0.03483205
0002f0 5a bc 61 3c a0 01 50 3d 41 8e 0c be 91 cb c8 3d
       0.013777817 0.0507828 -0.1372614 0.09804452
000300 33 8c 63 3c 32 3b 2d 3e df 28 b4 3d 74 c4 7c be
       0.013888407 0.16917112 0.08796858 -0.24684316
000310 80 e4 3b be 5f f4 3c be 36 bb 2c 3e 40 0b fe 3d
       -0.18348885 -0.18452595 0.1686829 0.124044895
000320 3e 62 50 3e 62 41 06 3e c7 e0 a5 3d f1 38 45 be
       0.20349976 0.13110879 0.080995135 -0.19260003
000330 31 b8 71 3e 8c a7 84 3e 75 e2 db 3d 58 1a 60 3d
       0.2360542 0.25909078 0.107365526 0.054712623
000340 90 88 23 be 77 54 0f be 0b ad 6f be 44 b4 9e bc
       -0.15970063 -0.13997065 -0.23405854 -0.019373067
000350 51 f0 16 3e d5 3b b7 3d 7a de 69 3b f0 ba 23 3d
       0.14740111 0.08946959 0.0035685585 0.0399732
000360 c4 18 12 3d d3 1d e3 3c e9 e9 b2 bd 4e 75 f7 3d
       0.03566815 0.027724182 -0.08736021 0.12082921
000370 6a 07 cd 3d 74 84 22 be f7 6b 70 bd b1 6b 07 bd
       0.1001118 -0.1587084 -0.058696713 -0.033061687
000380 69 16 15 3e bf 78 88 3b cc 0b 0b be eb 05 f7 bd
       0.1455933 0.0041647847 -0.13578719 -0.12061676
000390 9e 0d 1f 3e c2 04 af bd 74 97 ae 3d 7f e2 0b be
       0.15532538 -0.08545829 0.08524981 -0.1366062
0003a0 2e ce 14 be 58 64 f7 3d 2a 61 4f bd 76 64 0b be
       -0.14531776 0.12079686 -0.050629772 -0.13612542
0003b0 94 cc a5 bd ce d0 83 3d 8c 17 d3 3c c5 34 52 3e
       -0.08095661 0.06436311 0.025768064 0.20527942
0003c0 9c 0d 25 3d 12 b8 a9 3d ae 65 48 be 7e 8c 36 be
       0.040296182 0.08287062 -0.19570038 -0.17827031
0003d0 11 a1 31 be 05 75 90 be 72 e2 15 3e 02 b3 04 3e
       -0.17346598 -0.2821428 0.14637163 0.12958911
0003e0 de d2 60 3e aa 24 58 3d 58 6b 54 3e 5b 83 d0 bd
       0.2195544 0.05276934 0.20744073 -0.10181304
0003f0 f4 25 d0 3d b5 97 38 3e ba fa 24 bb 1b 73 61 3c
       0.10163489 0.18026622 -0.0025173859 0.013760353

branch2.0.bias f4 [24]
000000 b4 d5 06 bd 86 af c2 bd d3 63 36 3b 08 0e c5 bc
       -0.032918647 -0.09506135 0.0027830496 -0.024054542
000010 c4 9f 49 3d be fe e8 3c 02 10 f4 bd a9 28 06 be
       0.04922463 0.028441783 -0.11917116 -0.13101448
000020 11 a4 84 bd 01 a4 b5 bc 13 ea 91 bc f2 cb 59 3e
       -0.06476606 -0.02217293 -0.01781181 0.21269205
000030 c9 a1 08 3e b4 49 63 3b a6 c7 0e be d5 ee 25 3d
       0.13342966 0.0034681382 -0.13943347 0.04051097
000040 a4 f8 84 be 08 be 7a ba ca 6f c6 bb 01 33 aa bd
       -0.25970948 -0.000956506 -0.0060558068 -0.083105095
000050 8d b5 28 3d 23 11 34 3e 6b 49 b4 3d 10 36 58 3c
       0.041188765 0.17584662 0.08803066 0.013196483

branch2.4.weight f4 [12, 24, 5]
000000 60 9a 9c 3d fd 0c 36 bd 19 26 80 bd f2 75 fa bc
       0.07646632 -0.04444598 -0.062572666 -0.030573819
000010 1f 97 e0 3d 06 e1 8d 3d 19 10 00 bd 3d 88 93 3d
       0.10966324 0.069276854 -0.031265352 0.0720372
000020 45 31 8f bc 29 ce f6 3d 9a e5 97 3d bf 55 90 3d
       -0.017479548 0.12051041 0.0741684 0.07047605
000030 db 4c 91 bc d8 de 04 3e 37 9f 8b bc 08 b2 0a 3d
       -0.017736843 0.12975633 -0.017043693 0.03386119
000040 ac f8 ed 3d 33 30 c1 bd 13 3d 7a bd e4 a3 a8 bd
       0.11619696 -0.094330214 -0.0610934 -0.08234385
000050 de 51 22 3e 32 7a 50 3e d4 02 53 3d e4 55 22 3d
       0.15851542 0.20359114 0.05151637 0.039632693
000060 3e 08 ca bd 99 6c 4b 3e 09 28 07 3e 5b ff 70 3e
       -0.09864853 0.19865645 0.13198866 0.2353491
000070 8a f3 71 3d 5f e2 83 bd ff fe bf bd b0 74 ff 3c
       0.059070148 -0.06439661 -0.093748085 0.03118357
000080 cd dc f7 3d ab 46 24 3e 3b 05 48 bc e1 97 d0 bd
       0.12102661 0.16042583 -0.012208278 -0.101852186
000090 1e 15 47 be 5d 06 43 bd 70 0f 00 be 2e 78 be 3d
       -0.1944165 -0.04761349 -0.12505889 0.09300266
0000a0 10 f8 c7 3c d0 05 7c 3c e0 38 dc bd 6f 38 ec bc
       0.024410278 0.015382245 -0.107530355 -0.028835503
0000b0 7e cf ab bd 06 33 11 3e 7f b2 e1 3d fb 69 81 bd
       -0.08389185 0.1417962 0.110203736 -0.06319042
0000c0 92 c9 88 bd 83 22 45 bd 66 02 54 be a1 38 e4 bd
       -0.066790715 -0.048128616 -0.2070404 -0.111436136
0000d0 a2 b9 33 bc 56 f6 25 3e 6c 99 0c 3e f2 0b 03 3d
       -0.010969551 0.16207251 0.13730401 0.031993814
0000e0 90 36 a2 bd 34 ce 22 be 7c d5 48 be 42 4a e0 bd
       -0.07920563 -0.15898973 -0.19612688 -0.109516636
0000f0 17 8f 02 be e9 b7 d5 bd fc 3c 08 3d 6e a9 16 3d
       -0.12749897 -0.10435469 0.033261284 0.036782674
000100 61 3f c3 3c 90 aa 83 bd 2d eb 1e be 0c fc 86 bd
       0.023833932 -0.064290166 -0.155194 -0.06591043
000110 ba 98 db bd 56 5b e4 3d a7 82 e5 bd b0 34 3a 3e
       -0.1072249 0.111502334 -0.112065606 0.18184161
000120 cb 45 9d 3e 87 1b 22 3e a6 a8 81 3e 22 03 49 3e
       0.3071731 0.15830813 0.2532398 0.19630101
000130 d3 b4 3b 3e 94 73 28 3e 30 32 07 bd 0f 9a 89 3d
       0.18330698 0.1645034 -0.033006847 0.067188375
000140 27 fd 08 3e c1 88 c7 3d 94 13 07 3d 68 d5 89 bc
       0.1337782 0.097428806 0.032977656 -0.016825393
000150 ed 4f 3c be aa f9 e5 bd da 2c 4f be f5 24 bd bd
       -0.18389864 -0.1122926 -0.20231953 -0.092355646
000160 57 ff f3 3d 90 b7 18 3e d2 27 31 be 37 ba bb bc
       0.119139366 0.14913774 -0.17300346 -0.022915943
000170 27 72 48 bc 2a 79 a0 3d f9 97 99 3d cf 48 6f bd
       -0.012234247 0.0783561 0.074996896 -0.058419045
000180 ed 58 9b bd d0 48 38 3d bb 27 67 3e 6c 29 c9 3d
       -0.075853206 0.044991314 0.2257375 0.09822354
000190 c9 82 39 bb 81 60 81 bd 7b e7 34 bc ce 6c e2 bb
       -0.0028306714 -0.06317235 -0.011041517 -0.006909943
0001a0 12 73 65 bd 01 03 96 bc 57 a6 e8 3d 3c e7 45 bd
       -0.056017943 -0.01831198 0.11359852 -0.048316225
0001b0 5e fb cb bd 71 ee fb bd de 49 d3 3d 78 90 1a 3e
       -0.09960054 -0.123013385 0.103168234 0.15094173
0001c0 5d 6f 70 bd 07 fd 27 be 7e e4 5d 3d 6f 34 0a be
       -0.058699954 -0.16405116 0.054172985 -0.13496564
0001d0 71 46 51 3d d0 5e 6a 3d 37 8a 0d be 7f cd 8b 3c
       0.05109257 0.057219326 -0.13822256 0.017065762
0001e0 3f 75 19 bd 2b 90 96 3d d5 e6 3e 3e a5 84 9f 3c
       -0.03746533 0.073517166 0.18642743 0.01947243
0001f0 d2 77 fd bd 82 31 2a be 4c 1c c7 bd 9f d2 f5 bd
       -0.123763695 -0.16620448 -0.09722194 -0.120030634
000200 86 64 be bd 3d 8b bd bd a1 2c a1 3d 16 5c 6e ba
       -0.09296517 -0.09255073 0.078698404 -0.00090927014
000210 c9 86 d7 bd 6e 73 a4 3d 90 95 d3 3d ee f5 c8 3c
       -0.10523755 0.08029829 0.10331261 0.02453133
000220 72 f6 19 bd 73 97 5a bd 97 76 06 3e 0b 55 bb 3d
       -0.037588544 -0.05336709 0.13131176 0.0914708
000230 0d 51 c0 3d f2 0e 0e 3d cc 98 1a 3e f3 58 99 3d
       0.09390459 0.03468222 0.1509735 0.07487669
000240 18 71 08 bd f3 69 27 bd 52 3d fc 3b d0 15 d6 3d
       -0.03331098 -0.040872525 0.0076977396 0.10453379
000250 84 89 92 3e 9b 61 1d 3e e7 38 c6 3c 5a f7 02 be
       0.2862054 0.15369265 0.024197055 -0.1278967
000260 32 15 bb bd 03 c3 dc bd c4 ee 51 3d 59 b8 32 be
       -0.09134902 -0.10779383 0.051253095 -0.17453136
000270 33 ca 16 3e 54 31 2d bd 41 51 2f be 94 79 12 be
       0.1472557 -0.04228337 -0.1712084 -0.14304191
000280 9e c8 b1 3d c2 0d 8a bd 56 75 32 be f5 b7 a9 3d
       0.08680843 -0.06740905 -0.17427573 0.0828704
000290 f9 42 3e 3e 79 2c 97 bb 59 60 16 3e 52 38 bb bd
       0.18580236 -0.004613456 0.14685191 -0.091416016
0002a0 f8 8b d8 bd 3c 68 47 bd fc 92 98 bd 7b cc 43 3d
       -0.10573572 -0.04868339 -0.0744991 0.04780243
0002b0 3e f2 bc 3d d5 05 9f 3d ad f5 25 be cb 4e a9 3d
       0.092258915 0.07764784 -0.16206999 0.08266982
0002c0 6b f7 af 3d c0 84 47 3e 0f fc 81 3c 83 f1 89 3c
       0.08592113 0.19484234 0.015867261 0.016838795
0002d0 1b 55 05 3d 11 e0 6d bc ba c4 14 3e 1c 8a a1 bc
       0.032551866 -0.014518754 0.1452817 -0.019719176
0002e0 ae 4a 3d 3c a0 c1 06 bd 3f 49 2d be c2 09 91 be
       0.01155345 -0.0328995 -0.16922472 -0.28327757
0002f0 e6 55 5f be 71 f2 c2 bd 34 93 bb bd 83 94 06 3d
       -0.21810111 -0.09518898 -0.09158936 0.032856476
000300 a7 8d 0c 3e b0 4d 75 3d 75 16 71 3c e6 8f d3 3d
       0.13725911 0.05988854 0.014714827 0.10330181
000310 48 1e d9 3d d9 59 14 3e 73 e0 ae bc cf 20 4c 3d
       0.10601479 0.14487399 -0.02134726 0.049835976
000320 de f1 75 bd b3 09 b7 bd 8f 19 58 3e 38 26 51 3e
       -0.060045116 -0.08937397 0.211035 0.20424736
000330 2f d7 a7 3d f2 6e 1d 3c 2f f5 ae 3c 2f 88 44 3d
       0.0819534 0.009608971 0.021357147 0.047981437
000340 33 29 0b be 5e 40 53 bc 2d bc 56 be ed 71 2d be
       -0.13589935 -0.012893764 -0.20970221 -0.1693799
000350 cf 0c fb 3c 09 54 3e be 1c 4f a7 3c df bd 28 3e
       0.030645756 -0.18586744 0.020423464 0.1647868
000360 d4 43 52 3d 7a f0 b1 bd d3 5f 87 bd 7d 79 d8 3d
       0.051334217 -0.086884454 -0.06610074 0.10570047
000370 b4 39 1f 3e 36 ff 96 3d 5b c6 18 3c 75 73 0d 3d
       0.15549356 0.073728964 0.009324635 0.034533937
000380 ca 0c f1 bc 84 bf 55 bc 27 1f 81 bd 79 b7 e5 bd
       -0.029425044 -0.013046149 -0.0630477 -0.11216635
000390 29 68 b1 bd 5a 4d 2a be 8a 2d 0d 3e 39 84 95 3c
       -0.08662445 -0.1663107 0.13786903 0.018251525
0003a0 ea d8 34 3c 61 02 9c 3d ab 9e 28 3e 51 96 db bd
       0.0110380445 0.07617641 0.16466777 -0.1072203
0003b0 b7 46 7f bd fb 66 0f 3d f0 ef d0 bd cd d7 db bd
       -0.0623233 0.03501032 -0.102020144 -0.1073452
0003c0 4c 44 ff 3d c3 bd 44 3d 4a df cd bc cf 2f e1 bb
       0.124641985 0.048032533 -0.025130887 -0.0068721543
0003d0 4d bf d8 bc 3a a4 1e bc 4b 0a 7c 3d 44 20 96 3b
       -0.026458407 -0.009682709 0.061533254 0.004581483
0003e0 28 09 eb b9 79 d7 9b 3d 0c 0e 86 bd fe 97 46 3d
       -0.00044829515 0.076094575 -0.06545648 0.048484795
0003f0 82 e4 68 bd a9 ff 06 3e b3 5e 2f 3e 23 a9 a8 bd
       -0.056858547 0.13183464 0.17125969 -0.08235385

branch2.4.bias f4 [12]
000000 87 91 23 bd 6e 18 77 3d c1 cf 02 bd 6e 9f 4b 3d
       -0.039933708 0.060326032 -0.03193641 0.04971259
000010 29 92 d4 bd 85 eb b2 bd 62 3c 90 3c db 3b 8e bd
       -0.1037944 -0.08736328 0.017606918 -0.0694501
000020 69 c4 ac 3d 39 fe 12 3c 61 8a b2 bb e2 57 18 3d
       0.084359 0.008971744 -0.005448625 0.037193187

branch3.0.weight f4 [8, 8, 6]
000000 7b ea de 3b f9 b9 d3 bd 24 3a f0 3d 91 71 a8 bd
       0.0068028546 -0.10338206 0.117298394 -0.08224786
000010 ab 5f 90 3d 79 d9 31 3e 23 58 f8 bd aa d6 11 be
       0.07049497 0.17368115 -0.12126186 -0.14242044
000020 6a 61 13 3e 8a e1 3d 3e 39 d3 00 bd 27 f6 11 3e
       0.1439263 0.18543068 -0.031451438 0.14254056
000030 aa a9 17 bd 1b 94 b7 bd db 52 1b be 63 27 53 3d
       -0.03702704 -0.08963796 -0.15168326 0.051551234
000040 41 6d 8a bd 6a af f4 bc 9c ce 86 3e d0 78 88 3e
       -0.0675912 -0.0298688 0.26329505 0.26654673
000050 a0 d1 48 3e 0d 54 ef 3d 55 28 56 3d 41 2b a6 bd
       0.19611216 0.11685953 0.052284557 -0.08113719
000060 d9 68 09 3e 4c 39 2d bd b8 fb 07 be d4 66 7e 3d
       0.13418902 -0.04229097 -0.13279617 0.062109783
000070 56 39 a9 bd d0 56 c3 bd 9a 54 ac 3e 32 98 89 3e
       -0.08262889 -0.095380425 0.33658296 0.26873928
000080 40 ba 88 3e 08 11 8b 3e 90 f0 7a 3e 6c fa 0e 3e
       0.26704597 0.2716143 0.2450583 0.13962716
000090 92 71 48 bd ee 6a fa 3b e4 ea 16 be 98 69 00 be
       -0.048936434 0.0076421415 -0.14738041 -0.12540281
0000a0 16 14 8b bc 52 ce 2b be e7 83 94 3e ae 14 5e 3e
       -0.016977351 -0.16777924 0.29006884 0.21687576
0000b0 d1 90 86 3e b2 31 79 3d ee 9d 28 3d 5b 93 96 bd
       0.2628236 0.06083841 0.04116624 -0.073523246
0000c0 00 fd 40 be 09 d5 93 bc f6 04 20 3e c5 b9 7c 3e
       -0.18846512 -0.018045919 0.15626892 0.2468024
0000d0 de 42 3b 3e 3e e4 57 3c a0 3c 5e 3e b5 e6 9d 3e
       0.18287227 0.013176976 0.21702814 0.30840078
0000e0 6d b0 3c 3e a4 5d 04 3e e6 10 86 be 5a 4f 46 be
       0.18426676 0.12926346 -0.26184767 -0.19366208
0000f0 12 35 b6 bd 4f e1 2d 3b a4 02 0b 3d 93 28 5e 3d
       -0.08896841 0.0026532 0.033938065 0.054237913
000100 ac 5f b4 bb ad 4d 89 3e 4c 34 5d 3e 11 c7 cc 3c
       -0.005504569 0.26817074 0.21601981 0.024997266
000110 7f 49 17 3d 18 64 59 bd 65 94 96 be 76 cb 7a bd
       0.036935326 -0.053073972 -0.2941009 -0.06122919
000120 2e bf 65 bd 48 66 10 3e e2 c6 8c 3d 32 52 d7 bd
       -0.056090526 0.14101517 0.068738714 -0.105137244
000130 f3 28 51 be 11 e3 8b bc 0f f0 24 bd 9f 80 ed 3d
       -0.20425777 -0.017076047 -0.040268 0.11596798
000140 5f b1 5e bd 2d b8 2b bd b3 3a 32 bd d7 34 cc ba
       -0.054368373 -0.04192369 -0.04351301 -0.0015579712
000150 e2 27 6c bd f1 f7 53 be 1c 17 2d be da 24 2e bd
       -0.057655223 -0.20700051 -0.16903347 -0.042515613
000160 6e eb 5b 3d d4 45 31 3e 92 28 5a bd e7 3b c2 bd
       0.05369132 0.17311794 -0.053261347 -0.09484082
000170 16 87 39 be 63 d1 76 be d0 33 00 be 67 97 f6 3a
       -0.18117937 -0.24103312 -0.12519765 0.0018813432
000180 bb e4 6b 3e 19 e5 fb bd 94 d7 61 bd ea f1 dd 3d
       0.23036472 -0.12299556 -0.055137232 0.10837157
000190 2e aa 8b bd fb a3 22 bd d2 59 1a 3e 63 39 0a 3c
       -0.068195686 -0.039707165 0.15073326 0.008436534
0001a0 12 bd 9a be 81 46 ba be 43 1e 5e be db 00 07 3e
       -0.30222374 -0.36381915 -0.21691231 0.1318392
0001b0 ee 10 ef 3c 29 76 f3 bd dc 76 f1 3d 95 10 0e 3e
       0.029182877 -0.11887772 0.11790249 0.13873513
0001c0 c3 6d 2c bd c6 fc 84 3b bc 04 dc bd 7d 2c 59 bb
       -0.042096864 0.0040584533 -0.107430905 -0.003313809
0001d0 a2 47 73 3d 28 e9 33 be aa d5 a2 bd 96 d8 29 3e
       0.059394486 -0.17569411 -0.079509094 0.16586527
0001e0 b5 03 e1 3d 0c 17 2a 3d 53 47 46 3e 8f 0b 5a bd
       0.10987035 0.041525885 0.19363146 -0.05323368
0001f0 c9 a1 45 3d d0 42 9f bd 28 bd 0b 3e aa 03 37 3c
       0.048249993 -0.07776415 0.13646376 0.011170307
000200 ec ea 95 3c 8b ea 91 3d 7a 9b 30 bc 2b e7 16 3d
       0.018300496 0.07124814 -0.010779256 0.036841553
000210 73 d1 1c 3e e8 50 32 3e 4c 7a 95 3d d7 0f 21 3e
       0.15314274 0.17413676 0.07298717 0.15728699
000220 bf 86 42 3e c2 66 de 3d e9 53 0b be 38 20 31 bb
       0.18996714 0.10859443 -0.13606228 -0.002702726
000230 0c 4e 04 3d 8a f3 4b 3c d5 d7 38 3e 49 04 79 3e
       0.032300994 0.012448201 0.18051083 0.24318041
000240 0a 5b 31 bd 01 ce a9 3b a8 39 12 be b4 0b 0f be
       -0.043299712 0.0051820283 -0.14279807 -0.13969308
000250 a5 4a 15 be 82 99 79 be c3 1e 43 bd e0 f7 8e 3d
       -0.14579256 -0.24374965 -0.04763676 0.06980872
000260 7b 15 03 3d 39 93 42 bd fe 02 64 3d f1 50 ad 3c
       0.032002907 -0.047503684 0.055666916 0.02115676
000270 10 0e 24 3e a1 63 53 3d 45 9b c8 bc b7 b4 c8 bd
       0.1602099 0.051608685 -0.0244881 -0.098000936
000280 88 3c a1 bd f9 a4 ba 3b 22 79 57 bd 72 38 11 3e
       -0.078728735 0.005695936 -0.052605756 0.14181688
000290 30 ac d3 bd a0 27 85 bd 70 fe 8c 3d b4 d4 5e b9
       -0.103355765 -0.065016985 0.068844676 -0.00021250808
0002a0 74 32 1a 3e 00 cc ba 3d 75 79 22 3e 3e 54 fc bc
       0.15058309 0.09120941 0.15866645 -0.030801889
0002b0 dd 3f f5 3d a1 dc c8 bd d3 b6 0d be 55 72 fc bc
       0.119750716 -0.098077066 -0.13839273 -0.030816237
0002c0 5f c4 93 bd 7a 92 4e be 23 e7 68 be 13 6d 4e be
       -0.07215189 -0.20173064 -0.22744422 -0.20158796
0002d0 41 7e 50 3e fa e1 ea 3d 6d 73 bc bd 68 e0 db 3c
       0.20360662 0.11468883 -0.09201703 0.026840404
0002e0 0a 41 6f be 74 7d 27 bd ad ca 7c 39 28 78 08 be
       -0.23364654 -0.040891126 0.00024108095 -0.13327086
0002f0 3e 8e 64 be 00 3f ee bd 92 6f 56 be 84 2e 9a bd
       -0.22319886 -0.1163311 -0.20940998 -0.075284034
000300 bd 65 27 be 8a 07 9a be d9 dc 28 be 50 be 69 be
       -0.16347404 -0.30083877 -0.16490497 -0.22826505
000310 c6 fe db bb 9a 16 48 3e da 4d 5a be 42 9c 7c bd
       -0.006713721 0.19539872 -0.2131876 -0.061672457
000320 f7 7a 0c be 1a d1 0a be 7d df 3e bd 4b b2 94 bd
       -0.13718782 -0.13556328 -0.046599854 -0.07260569
000330 43 f8 c8 3d 44 6e ae bd d6 cd b9 bd 91 49 8c bc
       0.09812977 -0.08517125 -0.09072463 -0.017124923
000340 d6 a7 0f 3e 85 12 08 3c 1b 08 05 be fd c3 42 3e
       0.14028868 0.008305197 -0.12991373 0.19020076
000350 ce 8f 85 3d 20 0c 7f 3d 2d 2b f7 3c 76 80 b8 3d
       0.06521569 0.062267423 0.030171955 0.09008877
000360 e0 69 38 3e c4 33 87 3e 53 11 10 3e e2 d3 f2 3d
       0.18009138 0.26406682 0.14069109 0.1185682
000370 f3 bf a6 bd 2b 84 e7 bc cc d0 4d bc 41 da d9 3c
       -0.0814208 -0.028261265 -0.012561988 0.02659333
000380 d0 3f 50 bd c6 11 1b 3d ea 1f 3c bd fa 0f 1a 3e
       -0.050842106 0.037858747 -0.045928873 0.15045157
000390 4a fd 12 bc c4 fc 1f 3e fd f9 6c 3d dd bf 89 3c
       -0.008971522 0.15623766 0.057855595 0.01681512
0003a0 3f 9f ad 3d 4b bc 04 3e 22 04 57 3d db bd 19 3e
       0.084776394 0.12962453 0.052494176 0.1501383
0003b0 ca f6 72 3e 2b c2 6a 3e ee 49 83 3d 02 0c 63 3d
       0.23726955 0.22925632 0.06410585 0.055431373
0003c0 f7 16 b8 3d 70 11 4d 3d 8e 5f 9e bd b8 36 50 3d
       0.08988755 0.050065458 -0.07733069 0.050833434
0003d0 a3 bb 82 3a d7 48 43 bc c9 97 b2 bd 58 44 44 be
       0.0009974133 -0.011919222 -0.08720357 -0.19166696
0003e0 40 26 00 bd 19 e7 88 bd 56 90 75 3c 9a 22 bb bd
       -0.031286478 -0.066847034 0.014988026 -0.09137459
0003f0 bb e1 93 bd 5b d2 06 be 29 da 3e 3d ca 00 73 be
       -0.07220789 -0.13166182 0.046594772 -0.2373077

branch3.0.bias f4 [8]
000000 a8 8d 6c bd 31 ca 55 be 5a fa cc bc 39 23 28 3d
       -0.05775228 -0.20877911 -0.02502172 0.041049216
000010 4b 59 5b bd 63 02 1b be de 13 f3 3b 47 fd 37 be
       -0.053551953 -0.15137629 0.00741814 -0.17967711

branch3.4.weight f4 [8, 8, 4]
000000 16 d5 0c 3e aa 29 67 3e 75 4d 27 3c 25 92 d6 3d
       0.13753161 0.22574487 0.010211338 0.104770936
000010 a9 aa 86 3d 57 29 0e be bf 5c 1f bd 5a d2 3f 3e
       0.065755196 -0.13882957 -0.03890681 0.18732587
000020 38 8e 3e 3e 98 35 f2 bd 5b 8c eb 3d ed 25 7f 3e
       0.1860894 -0.118266284 0.1150138 0.24916811
000030 80 da c4 bd cd 4a 94 bd ac f0 28 be cd 52 86 3d
       -0.09611988 -0.072408296 -0.16498059 0.06558762
000040 fa 12 c2 3d d7 16 ae bd db 03 ed 3d 54 b8 b8 3d
       0.09476276 -0.0850045 0.11573001 0.09019533
000050 78 a9 52 be 42 4e 84 3e 5c e2 2a 3e 5a 25 2c bc
       -0.2057246 0.25840956 0.16687912 -0.010506952
000060 15 4f cd 3c d5 fb 4c 3d e8 d0 34 3e 49 21 85 3d
       0.025062123 0.050044853 0.17657816 0.06500489
000070 25 43 fa bd 05 53 ed bd 1b 98 be bd 92 0f dd bd
       -0.12219838 -0.115881 -0.093063556 -0.107939854
000080 be d1 79 3d 3b bb ce 3d cd 9d 46 be 1d 85 c4 3d
       0.06099104 0.10094305 -0.19396134 0.09595702
000090 f1 cc a9 be a9 81 e2 bd 1a 8b 59 3e 2a e5 cc 3d
       -0.3316417 -0.11059887 0.2124447 0.10004647
0000a0 fb 11 c7 bd 0b d3 60 be 4c 6c 83 bd 31 98 91 3e
       -0.097202264 -0.21955507 -0.0641714 0.28436425
0000b0 0f 00 32 3e 65 5d f9 3c 53 8f 42 3e 81 b8 3c be
       0.17382835 0.030440042 0.18999986 -0.18429758
0000c0 32 07 13 be 5c cf bf bd c7 bc 80 3e d5 d4 85 bd
       -0.14358214 -0.093657225 0.25144026 -0.06534735
0000d0 e4 47 3f 3c 46 d6 04 3e 77 5b 85 be 48 8c 5b be
       0.011674855 0.12972364 -0.26046345 -0.21440232
0000e0 7c a3 f7 3c 89 8b f0 bd 20 62 cd bd f5 ec 0a be
       0.030229323 -0.11745364 -0.100284815 -0.13566954
0000f0 bb 0f dc 3d 83 83 10 be 2a ba ea bd 36 77 07 3e
       0.10745188 -0.14112668 -0.11461289 0.13229069
000100 21 bd 32 be db 28 9f 3b d7 37 a4 bd 7c 87 c3 3c
       -0.1745496 0.0048571653 -0.08018463 0.023868315
000110 5a 22 8d 3d 75 77 8a be 29 59 08 3d 79 0d 90 3c
       0.06891318 -0.27044263 0.033288155 0.01758455
000120 4a 37 c1 bd cf 8c 95 bc a0 ea c5 bb 5d aa 94 3c
       -0.09434374 -0.01825562 -0.0060399324 0.018147642
000130 d5 5d a9 bb a4 38 ff bd 5b b7 14 be dd 54 5d 3e
       -0.0051686564 -0.12461975 -0.1452307 0.21614404
000140 d6 d7 c5 3e f0 1d 65 3d 76 4f cd bc eb 8e 86 bd
       0.38641232 0.055936754 -0.025062304 -0.06570228
000150 31 4e 14 3e 1c 54 60 3e 05 ef d8 3d 29 92 18 be
       0.14482953 0.21907085 0.10592464 -0.14899506
000160 14 bf a9 3d 6d c9 6f bd 6a 2f 2b 3e c9 0a b1 bc
       0.082883984 -0.058541704 0.16717306 -0.021611588
000170 cd 87 7a 3e 3f 60 2b 3e 1a 25 c6 bd 85 86 d7 3d
       0.24465866 0.16735934 -0.09675045 0.105237044
000180 61 9c 81 3c 8c 14 20 3e c6 92 17 3e 84 f8 5c 3e
       0.015821638 0.15632838 0.14802083 0.21579176
000190 df b8 83 bd 20 40 95 bc e6 27 43 3d dd 45 4a 3d
       -0.06431746 -0.018219054 0.047645472 0.049383033
0001a0 ea 8e 6f bd 43 1d 33 3e 28 15 93 bc b4 c2 4d 3c
       -0.058485903 0.17491631 -0.017954424 0.012558628
0001b0 ef b7 fd bc 33 af 0c 3d 21 b7 02 3d af 77 0d ba
       -0.030971495 0.03434677 0.031912927 -0.00053965574
0001c0 9b 99 78 bc fe d4 75 3e ff 7c 4b 3e f0 34 5f 3d
       -0.015173341 0.24007031 0.19871901 0.054493845
0001d0 6f de c7 3d 9f 42 13 3c 3c 7a ad 3d 6d 0e aa 3d
       0.09759223 0.008988052 0.0847058 0.08303533
0001e0 9c 36 9d bd 23 a5 53 bd b2 d8 81 bc 66 a6 3b be
       -0.076764315 -0.05167116 -0.015850399 -0.18325195
0001f0 5a 09 1f 3d 72 fe 6f 3e 44 b1 9c 3e ca c8 83 3e
       0.038827278 0.23436907 0.30603993 0.25739127
000200 34 85 ce 3d 87 74 a4 3e bc 73 18 3e d7 5f cd 3d
       0.10084 0.32120153 0.14887899 0.100280456
000210 c9 f3 8a be 1c ec 28 be ed aa 29 3d b9 73 58 3e
       -0.27139118 -0.16496319 0.041422773 0.21137895
000220 fd 4d 72 3e 67 50 02 be 81 b7 8d be 5d 50 1d 3e
       0.23662563 -0.12725984 -0.27679065 0.15362687
000230 a0 cd 13 be 46 b9 bb bd d1 0f 4a be d7 9e 36 3b
       -0.14433908 -0.091661975 -0.19732596 0.0027865672
000240 43 ae f8 bd f1 20 cc 3c a8 a8 61 3c 66 3e 83 be
       -0.12142613 0.024918051 0.013773121 -0.25633544
000250 cf f4 73 3d 23 bd 44 3d 67 19 8a be 9f f2 4a bc
       0.05955964 0.048031937 -0.26972505 -0.012386947
000260 53 12 73 3d dd 8b 04 be a2 a0 be bb 70 16 a6 bc
       0.059343647 -0.12943979 -0.005817489 -0.02027437
000270 77 47 92 3d ad 37 b9 3d 60 51 26 3c b5 3a 78 be
       0.07142537 0.090438224 0.010151237 -0.24241145
000280 d5 fd 0d 3e 44 0e da 3d 0e 6c 4c 3e 60 eb 03 bc
       0.1386636 0.10647252 0.19963095 -0.008051723
000290 06 cc 01 be da a4 ba be 92 72 f4 bd 19 64 84 3e
       -0.12675485 -0.36453897 -0.11935915 0.25857618
0002a0 51 75 c8 3e cd 4a 01 be 25 d6 68 bc 1b dc 0d be
       0.39152005 -0.1262619 -0.014211212 -0.13853495
0002b0 12 b2 53 3d 94 e0 ce 3c d7 68 1f 3e 12 90 ba bd
       0.051683493 0.025253572 0.15567337 -0.091095105
0002c0 f7 fd 83 bd c3 41 4f 3e 68 40 7a 3e 45 75 fa bb
       -0.06444924 0.2023993 0.24438632 -0.007643374
0002d0 80 33 1e 3e 69 b9 13 3e 5c 58 8e 3c 31 2f b7 bd
       0.15449333 0.14426197 0.017376117 -0.08944548
0002e0 1e af 35 3d b5 79 10 3e bc cc 14 be 64 9b 38 bd
       0.044356458 0.14108928 -0.14531225 -0.045070067
0002f0 93 27 6b bd 0c f6 86 bd 2d 33 44 3e 1e 31 ac bc
       -0.057410788 -0.065898985 0.19160147 -0.021019515
000300 85 ea a8 be 05 b0 b6 bd fc f7 21 be 17 85 03 be
       -0.32991424 -0.08920292 -0.15817255 -0.12843738
000310 ea 09 8c 3e 10 89 51 bd 93 4d 0c 3d 15 49 b7 be
       0.27351314 -0.051156104 0.034253668 -0.35797945
000320 08 f1 ba bd e6 5e 30 3e 9d 8b fb 3d 89 8e be bd
       -0.09128004 0.17223701 0.122824885 -0.0930453
000330 42 a5 26 3e 70 f4 5d 3e 2e ca 3d 3e 2e 3f 0c be
       0.16273978 0.21675277 0.18534157 -0.13695976
000340 6a c5 d0 bd 3a 59 d1 bd af 3f 6e 3e ab ef 2c 3e
       -0.10193904 -0.10222097 0.23266481 0.16888301
000350 65 3f 44 3e e2 87 b9 bd d9 11 b2 bd 4c 3a cb bd
       0.19164808 -0.09059121 -0.086948104 -0.099232286
000360 a0 fc 2e 3e 7f 51 1e 3e bd 6c c9 bd 64 64 13 bd
       0.17088556 0.15460776 -0.09835193 -0.03598441
000370 1f a0 bc bd a2 d5 84 be 02 5f 2f 3e 9a 97 56 3d
       -0.09210228 -0.2594424 0.17126086 0.052390672
000380 6e 89 2b bc e4 fe 8a be cb 25 15 be 17 fc 3a bb
       -0.0104697775 -0.2714759 -0.14565198 -0.0028531605
000390 df 01 73 3e 28 ba 13 3e d8 f9 02 be 3f df 27 be
       0.23731183 0.14426482 -0.1279062 -0.16393755
0003a0 73 64 69 bc 0e 5f e9 3c 3d 83 76 3e e6 f5 03 be
       -0.01424514 0.028487708 0.24073501 -0.12886772
0003b0 c1 22 35 3e 1b 01 98 3e 53 ba 7e bd c3 89 27 3e
       0.17689039 0.29688343 -0.06218941 0.16361146
0003c0 67 4f 37 be 89 5e 9e bd cd 05 54 3e f6 c1 fb 3d
       -0.17901383 -0.07732875 0.20705338 0.122928545
0003d0 3e b4 a0 bc ca 5d f3 bc fb ca 52 be 97 af 07 3e
       -0.019617196 -0.029707808 -0.20585243 0.13250576
0003e0 93 cc 1c bd b3 99 f4 3c 6e c2 80 bc 77 2d f2 bd
       -0.038281035 0.029858446 -0.015717711 -0.11825078
0003f0 1e ef d3 bd 04 65 32 be 65 9f 8e 3c be 53 40 3e
       -0.10348342 -0.17421347 0.01740999 0.18781945

branch3.4.bias f4 [8]
000000 17 04 45 3c 7b d5 19 3e 5f 3e 26 bd 81 ee 73 be
       0.012024901 0.15022843 -0.040586825 -0.23821451
000010 ff f0 f5 bd 7e 90 c9 bd 96 19 25 bd cd 8e 17 3d
       -0.12008857 -0.09842013 -0.040307604 0.03700142
