Models/ethan_test_16_channels_85_71.pt (torch, 107618 bytes, 26 tensors)

branch1.0.weight f4 [12, 16, 4]
0.049364317 -0.031858776 -0.08581225 -0.13040024 -0.001532539 -0.037181247 0.019674864 -0.017173726
0.09331906 0.014762148 0.17033216 0.004425205 -0.14881948 -0.20210515 -0.14409715 -0.007467927
-0.025718102 -0.08654203 -0.007846882 0.1142513 0.0536944 0.19655697 0.1566537 0.10247834
-0.010401428 0.03228552 0.0063732006 0.066528276 0.07685693 0.15851305 0.1349419 0.04697661
0.12865977 -0.029771633 0.024152186 0.1875518 0.07260358 0.21137439 0.22690155 0.15009019
-0.039204855 0.062615834 -0.14008549 -0.14248846 0.07157676 -0.055979177 0.102508746 0.060283262
0.058889497 0.06820131 0.19938874 0.12968463 0.09606701 0.10847894 0.13297743 0.12799084
0.07826116 0.15556446 -0.15388794 -0.12889044 0.014583711 -0.14138286 -0.080322444 -0.07386056
-0.17327885 -0.15780786 -0.19419993 -0.23916717 0.049860805 0.09718384 -0.1442509 -0.21300568
0.010621305 -0.047631066 -0.04725214 -0.046317786 0.088404015 -0.00018921812 0.10692548 0.120812096
0.050279085 0.10919328 0.04654488 -0.102457404 -0.0004051747 0.014363994 -0.2000324 -0.24272881
-0.07459046 -0.065595366 0.0043098596 -0.037156414 -0.3237547 -0.28811726 -0.034998734 0.034636836
-0.038616907 0.11964563 0.016330985 0.22709356 0.05117787 -0.00018778819 0.16466726 0.026112083
-0.11501292 -0.053865988 0.18038271 0.1583213 0.03517129 -0.04813189 -0.058272384 -0.10635581
-0.094774544 -0.013059896 -0.0035494345 -0.13384348 -0.21807198 0.007259259 -0.0024313275 0.12429553
0.015912702 -0.013141073 0.13809009 0.08724517 -0.10151946 -0.20752327 -0.26466587 -0.16005956
-0.09960811 -0.057859793 0.09244168 0.051410895 -0.020902786 -0.12516844 -0.062100846 -0.0630871
-0.036701135 -0.085628584 -0.041172974 -0.048400234 0.047987867 -0.0889438 -0.066417746 0.040628884
0.07323181 0.020652834 -0.03693522 -0.129756 -0.2113129 -0.021497473 -0.05661821 -0.008842213
-0.14185241 -0.08916086 -0.12447572 -0.034903012 0.1397369 0.13188566 -0.05635368 -0.14111319
0.00049328443 0.074379444 0.12096022 0.068992645 -0.078859314 -0.24344312 -0.21591125 -0.3057218
0.08997199 -0.052557554 -0.17179887 0.095821 -0.14701332 0.05926561 -0.05289061 0.043161795
0.016959595 -0.10469132 -0.03355182 -0.13642982 0.08772839 0.020849453 -0.120352894 -0.023498623
0.045511324 -0.20587964 -0.22117618 -0.022548553 0.060749944 -0.04954895 0.04224576 -0.021784367
0.018119887 0.063770555 0.21395697 0.1813154 -0.004306037 0.12001234 0.1373484 0.09004361
0.10617095 0.20417498 0.2680407 -0.05434481 0.04384315 -0.05225853 -0.15674324 -0.040153574
0.09337811 0.23590247 0.19668755 0.16521157 0.15014663 0.26146495 0.09432729 -0.12857652
0.09108204 0.13876507 -0.15150683 -0.08582264 -0.089702755 0.10520371 0.047309883 0.14120346
-0.18832648 0.032338638 -0.12526253 0.05273251 -0.0047109504 0.03674075 0.21241544 -0.018473497
-0.1055125 0.1939052 0.13359329 0.22966462 0.13326535 -0.08781282 0.124262296 0.033082023
-0.013422299 0.06889878 -0.007648728 -0.14562139 -0.074515425 0.029676585 -0.0073870267 -0.03204309
-0.112437695 -0.17062397 -0.11683717 -0.28559634 -0.14512269 -0.11718236 0.039511245 0.22053823
00000000: 3d32 4a3d 597e 02bd 55be afbd a487 05be
00000010: 7adf c8ba 5d4b 18bd 2e2d a13c eaaf 8cbc
00000020: 101e bf3d f0dc 713c 8e6b 2e3e 4f01 913b
00000030: 2264 18be a7f4 4ebe 348e 13be 83b5 f4bb
00000040: c5ae d2bc f33c b1bd 3590 00bc 96fc e93d
00000050: a9ee 5b3d 3b46 493e d469 203e 2ae0 d13d
00000060: c06a 2abc d23d 043d 48d6 d03b fa3f 883d
00000070: 2b67 9d3d 3f51 223e 362e 0a3e 8c6a 403d
00000080: 63bf 033e a4e3 f3bc ceda c53c 940d 403e
00000090: 30b1 943d 8772 583e e158 683e 3eb1 193e
000000a0: 4595 20bd bb3c 803d 9272 0fbe 7fe8 11be
000000b0: d696 923d 6c4a 65bd 1bf0 d13d 95eb 763d
000000c0: 1d36 713d 21ad 8b3d 902c 4c3e 0ccc 043e
000000d0: c8be c43d 352a de3d 3c2b 083e 0810 033e
000000e0: 6347 a03d 4a4c 1f3e cd94 1dbe dbfb 03be
000000f0: 84f0 6e3c abc6 10be 1880 a4bd 3544 97bd
00000100: 0370 31be 6298 21be 59dc 46be 3de8 74be
00000110: d83a 4c3d 5208 c73d 82b6 13be 291e 5abe
00000120: fb04 2e3c cb18 43bd 768b 41bd b8b7 3dbd
00000130: 2a0d b53d da68 46b9 bffb da3d 556c f73d
00000140: 71f1 4d3d baa0 df3d d8a5 3e3d 30d5 d1bd
00000150: a16d d4b9 f556 6b3c 4bd5 4cbe e78d 78be
00000160: e2c2 98bd dd56 86bd b939 8d3b 5331 18bd
00000170: 2dc3 a5be 1b84 93be d55a 0fbd 5bdf 0d3d
00000180: c32c 1ebd c508 f53d 8fc8 853c 378b 683e
00000190: e39f 513d 02e9 44b9 899e 283e 02e9 d53c
000001a0: e58b ebbd 95a2 5cbd 3fb6 383e fb1e 223e
000001b0: c50f 103d f225 45bd 06af 6ebd 13d1 d9bd
000001c0: 2819 c2bd 2df9 55bc a19d 68bb 440e 09be
000001d0: 434e 5fbe 14df ed3b e856 1fbb a88e fe3d
000001e0: 5b5b 823c a84d 57bc 7d67 0d3e 98ad b23d
000001f0: 6fe9 cfbd fb80 54be 4982 87be a7e6 23be
00000200: 56ff cbbd 64fe 6cbd 1052 bd3d 3b94 523d
00000210: 523c abbc 282c 00be 755d 7ebd cf33 81bd
00000220: ee53 16bd 0a5e afbd fea4 28bd 533f 46bd
00000230: ed8e 443d 2b28 b6bd 0706 88bd 796a 263d
00000240: 8ffa 953d 2230 a93c 6349 17bd c2de 04be
00000250: 6962 58be 781b b0bc 7fe8 67bd eede 10bc
00000260: c241 11be f899 b6bd 20ed febd 76f6 0ebd
00000270: 3117 0f3e 090d 073e 1ed3 66bd fa7f 10be
00000280: c24f 013a 4054 983d feb9 f73d 044c 8d3d
00000290: fe80 a1bd 2749 79be d717 5dbe 9187 9cbe
000002a0: 3c43 b83d 9746 57bd 0bec 2fbe cd3d c43d
000002b0: a98a 16be 7fc0 723d d3a3 58bd 6cca 303d
000002c0: d9ee 8a3c 6768 d6bd a26d 09bd 42b4 0bbe
000002d0: f1aa b33d 79cc aa3c 947b f6bd 2f80 c0bc
000002e0: 156a 3a3d 1dd2 52be 027c 62be beb7 b8bc
000002f0: efd4 783d d7f3 4abd e409 2d3d 2175 b2bc
00000300: 2870 943c 239a 823d 8917 5b3e bfaa 393e
00000310: a819 8dbb 08c9 f53d 0fa5 0c3e c968 b83d
00000320: 2870 d93d 3f13 513e a13c 893e aa98 5ebd
00000330: e094 333d 0a0d 56bd 4d81 20be 1378 24bd
00000340: 063d bf3d 6b90 713e 7668 493e 392d 293e
00000350: 0ac0 193e bcde 853e ab2e c13d 90a9 03be
00000360: 3889 ba3d 6e18 0e3e 9b24 1bbe c8c3 afbd
00000370: 14b6 b7bd 0b75 d73d 02c8 413d a497 103e
00000380: a8d8 40be 8575 043d d244 00be 0bfe 573d
00000390: 515e 9abb 787d 163d 6f83 593e bb55 97bc
000003a0: f016 d8bd 168f 463e aecc 083e 342d 6b3e
000003b0: b676 083e 35d7 b3bd 3b7d fe3d 0481 073d
000003c0: 34e9 5bbc ce1a 8d3d 2ea2 fabb c61d 15be
000003d0: 8b9b 98bd 4f1c f33c df0e f2bb 9d3f 03bd
000003e0: bc45 e6bd 0db8 2ebe 5448 efbd af39 92be
000003f0: 0b9b 14be 4efd efbd 8bd6 213d c6d4 613e

branch1.0.bias f4 [12]
-0.31975988 0.027222881 -0.14860618 -0.019302452 -0.05759592 0.08297161 -0.025799818 -0.0063450714
-0.18527423 0.13623936 -0.31200615 -0.035002485
00000000: 91b7 a3be 8502 df3c 382c 18be 2d20 9ebc
00000010: b3e9 6bbd 05ed a93d 245a d3bc 51ea cfbb
00000020: 87b8 3dbe 5582 0b3e 45bf 9fbe c45e 0fbd

branch1.4.weight f4 [32, 12, 7]
0.17922975 0.13214302 -0.0852314 0.095820986 0.23078409 0.08956202 0.08285421 -0.09571873
0.02153656 0.06441756 0.051089033 0.04543046 -0.06919883 0.017528266 -0.057943415 0.23307846
0.08006477 -0.3102546 -0.038771253 -0.06691434 -0.019377116 0.13644978 0.08046568 -0.07624574
0.1348673 0.08209209 0.13250947 0.06299811 -0.10605017 -0.069598466 0.12998368 0.033371776
-0.024624527 -0.1212169 0.14367935 -0.1491539 -0.06000676 0.048776027 -0.14722192 0.14414437
0.21032739 0.22523506 -0.014287144 0.07095567 0.07495421 -0.15205058 0.09304665 -0.03326364
-0.01756394 -0.010824016 -0.091976374 -0.036106106 0.007516771 -0.031908948 -0.1671302 -0.043014407
0.048461955 0.17174359 0.17710562 0.011316542 -0.14756367 0.060179625 0.065652095 0.19243652
-0.003789662 0.09007568 0.07969239 -0.03917777 -0.07119991 0.018901167 0.20327465 0.052660678
-0.15568158 0.23675264 0.22769791 -0.03478089 -0.06347865 0.01792721 -0.23427002 0.038563583
0.17253253 0.05777523 0.030715242 0.103797086 -0.06159648 0.03934155 0.023936186 0.10905189
0.012144697 -0.14367941 -0.05990694 -0.22767264 -0.23088638 0.021904431 -0.050278775 -0.004007415
0.22687279 -0.017426008 0.024906177 -0.008156292 -0.06072578 -0.08375408 -0.031598497 -0.008051418
-0.10676462 0.037462085 0.015292937 0.12110165 -0.16665046 -0.046128504 -0.053010248 -0.00666766
0.017844193 -0.10099609 0.040953938 -0.09446686 0.20929249 0.13153829 -0.13732634 -0.09647369
0.030370612 0.03237808 -0.022163458 -0.16289549 -0.06915814 0.020111017 0.08924838 -0.005508898
0.12869065 0.08795405 0.16961426 0.024953041 -0.14463846 -0.20403804 -0.13247295 -0.16449189
0.050031815 0.050377537 -0.017808829 0.114667 -0.059656035 -0.04691189 0.0015127243 0.04522011
-0.34699592 -0.1353312 -0.20392026 0.04749316 -0.03166845 0.15952885 -0.13952799 -0.11566592
-0.10414973 -0.0095260525 -0.08912385 -0.12514329 0.03476017 -0.04589978 -0.29429692 -0.13090491
-0.05844424 -0.16394094 0.03983088 0.009787678 0.036400925 0.08688824 0.19711126 -0.027622465
0.15305357 -0.14426264 -0.3647718 0.12084593 0.30033424 0.07599757 0.022307225 -0.09216585
0.048960887 0.36534628 -0.028189626 -0.008033354 -0.07860926 0.14210795 0.16187628 0.10092866
0.03088664 0.10145318 0.06692912 -0.012024386 -0.038517624 0.06433688 -0.1350779 -0.15058284
0.08202938 -0.055941347 0.085565135 -0.09085026 -0.09715281 0.02235116 0.051128063 0.16867891
0.05477587 0.05134026 0.0828 0.05120277 -0.037209973 0.15367125 -0.080040075 -0.2400207
0.027807571 -0.18040437 0.09530772 0.03807974 0.09446912 0.018187879 0.04787704 0.24839778
-0.14664134 -0.105416045 -0.013614949 0.060009167 -0.0717333 -0.0073053404 0.07458296 0.2610906
-0.015959855 0.18045908 0.10974631 0.040875234 -0.0003495651 0.060110413 -0.05017992 0.016649112
0.081507824 0.033182025 0.10148315 0.053664647 0.08834016 0.10863144 -0.07603267 -0.10130928
-0.11228573 0.21864976 0.19111332 -0.07850275 0.0030759247 -0.13435094 0.09996382 -0.1251572
-8.0095524e-05 -0.20706098 0.06645063 0.05706567 0.09035895 0.082177125 0.02912517 0.13782404
00000000: 0188 373e 8050 073e cd8d aebd cb3d c43d
00000010: aa52 6c3e 4b6c b73d 78af a93d 2e08 c4bd
00000020: 716d b03c 5bed 833d bc42 513d 4a15 3a3d
00000030: 1eb8 8dbd 7097 8f3c 1356 6dbd 1fac 6e3e
00000040: 00f9 a33d b1d9 9ebe 9bce 1ebd 630a 89bd
00000050: c2bc 9ebc 7eb9 0b3e 31cb a43d ba26 9cbd
00000060: a71a 0a3e e61f a83d 90b0 073e 2705 813d
00000070: d530 d9bd a489 8ebd 711a 053e d8b0 083d
00000080: 60b9 c9bc 9140 f8bd ae20 133e cdbb 18be
00000090: a6c9 75bd 5fc9 473d 58c1 16be 959a 133e
000000a0: 1060 573e 05a4 663e a014 6abc 3551 913d
000000b0: 9881 993d 26b3 1bbe 3e8f be3d 743f 08bd
000000c0: 40e2 8fbc 3757 31bc 1c5e bcbd ffe3 13bd
000000d0: 3f4f f63b f5b2 02bd 2e24 2bbe e02f 30bd
000000e0: 0b80 463d 8ddd 2f3e 2d5b 353e 0469 393c
000000f0: ee1a 17be e97e 763d 9b74 863d 140e 453e
00000100: fa5b 78bb 9979 b83d c435 a33d df78 20bd
00000110: 42d1 91bd 9fd6 9a3c 3b27 503e b9b2 573d
00000120: fe6a 1fbe 496f 723e a429 693e 6876 0ebd
00000130: 1801 82bd 16dc 923c 7be4 6fbe d9f4 1d3d
00000140: 5eac 303e b8a5 6c3d 889e fb3c 9193 d43d
00000150: 974c 7cbd 9b24 213d d215 c43c 9956 df3d
00000160: 8dfa 463c b220 13be fb60 75bd 0423 69be
00000170: 7b6d 6cbe ec70 b33c 1ef1 4dbd a250 83bb
00000180: 5751 683e fdc0 8ebc 0a08 cc3c f8a1 05bc
00000190: 98bb 78bd 4287 abbd 6d6d 01bd 18ea 03bc
000001a0: 69a7 dabd d871 193d 3a8f 7a3c 2404 f83d
000001b0: 6ba6 2abe 3ef1 3cbd 4621 59bd 637c dabb
000001c0: fc2d 923c 0ad7 cebd 51bf 273d d777 c1bd
000001d0: c550 563e f9b1 063e 479f 0cbe ff93 c5bd
000001e0: cacb f83c e19e 043d 2490 b5bc 13ce 26be
000001f0: c8a2 8dbd dcbf a43c dbc7 b63d fc83 b4bb
00000200: 7bc7 033e 4121 b43d 5caf 2d3e 526a cc3c
00000210: 1b1c 14be 59ef 50be fda6 07be 9070 28be
00000220: 29ee 4c3d ad58 4e3d d2e3 91bc 88d6 ea3d
00000230: e359 74bd af26 40bd 9b46 c63a b938 393d
00000240: 73a9 b1be 4394 0abe 79d0 50be 3088 423d
00000250: c7b6 01bd 885b 233e 6de0 0ebe 41e2 ecbd
00000260: 744c d5bd 2913 1cbc 9186 b6bd 9025 00be
00000270: ae60 0e3d 6801 3cbd 16ae 96be f00b 06be
00000280: 3a63 6fbd 22e0 27be b425 233d 7f5c 203c
00000290: 2319 153d 76f2 b13d 89d7 493e 8248 e2bc
000002a0: 13ba 1c3e 96b9 13be 5fc3 babe 127e f73d
000002b0: 69c5 993e 9da4 9b3d a4bd b63c 73c1 bcbd
000002c0: 368b 483d ab0e bb3e eeed e6bc 549e 03bc
000002d0: e4fd a0bd bf84 113e e5c2 253e afb3 ce3d
000002e0: fb05 fd3c afc6 cf3d 2212 893d ee01 45bc
000002f0: a8c4 1dbd 0ec3 833d dc51 0abe 6332 1abe
00000300: 05ff a73d c122 65bd c63c af3d b30f babd
00000310: 0df8 c6bd c819 b73c a96b 513d 2aba 2c3e
00000320: aa5c 603d 2a4a 523d 0c93 a93d ffb9 513d
00000330: 7c69 18bd ff5b 1d3e 0dec a3bd fdc7 75be
00000340: b4cc e33c ecbb 38be b230 c33d 80f9 1b3d
00000350: 0779 c13d bffe 943c b71a 443d fd5b 7e3e
00000360: 2629 16be 5ee4 d7bd 3c11 5fbc 2ccc 753d
00000370: e9e8 92bd a361 efbb f3be 983d abad 853e
00000380: 3ebe 82bc 44ca 383e acc2 e03d ca6c 273d
00000390: d545 b7b9 5636 763d 7689 4dbd b863 883c
000003a0: 93ed a63d e0e9 073d 66d6 cf3d 76cf 5b3d
000003b0: b0eb b43d 297a de3d 04b7 9bbd 3d7b cfbd
000003c0: 10f6 e5bd b9e5 5f3e 36b3 433e 0dc6 a0bd
000003d0: 7495 493b 4b93 09be d5b9 cc3d 3629 00be
000003e0: f5f8 a7b8 cb07 54be 4517 883d b1bd 693d
000003f0: 1d0e b93d 7b4c a83d e997 ee3c bf21 0d3e

branch1.4.bias f4 [32]
-0.06835315 -0.076142 0.1333795 -0.057760417 -0.16653234 0.13220018 -0.0345169 0.028715897
0.041334707 -0.017614264 0.108668685 -0.057492364 -0.13028026 0.10026117 -0.06303633 0.005704679
-0.071156316 0.004876185 -0.13131118 -0.09378453 -0.04422126 0.014962859 0.10960573 -0.002509219
-0.13740116 -0.13197419 0.09468933 -0.042441756 0.032159965 0.0045901886 -0.0039933203 -0.08039579
00000000: bcfc 8bbd 56f0 9bbd a394 083e 3096 6cbd
00000010: 7487 2abe 7c5f 073e 9861 0dbd 9a3d eb3c
00000020: 954e 293d ca4b 90bc b08d de3d 1d7d 6bbd
00000030: 3068 05be ba55 cd3d 3119 81bd 51ee ba3b
00000040: 67ba 91bd 68c8 9f3b 7076 06be 1b12 c0bd
00000050: 5a21 35bd c826 753c f878 e03d b671 24bb
00000060: e4b2 0cbe 3e24 07be 7bec c13d 68d7 2dbd
00000070: 2bba 033d 4b69 963b 66da 82bb 8ca6 a4bd

branch2.0.weight f4 [24, 16, 6]
0.0078021414 -0.061306518 -0.24125393 -0.14061618 -0.15403903 -0.022340264 -0.0132745085 -0.12818849
-0.09325193 -0.20327863 -0.18110114 -0.120786585 -0.15596564 -0.14320417 0.07320071 -0.11316441
-0.07603024 -0.0690264 0.055070233 0.046805516 0.15960154 0.045471486 -0.04469994 -0.054202896
-0.025928248 -0.080289066 0.031811263 0.112150155 0.04463215 0.027257891 -0.04122365 -0.115828
-0.07132937 -0.05094025 -0.04362299 -0.053211365 0.05275718 0.0038309952 0.01674247 -0.051469512
-0.006220679 0.10622446 0.19110617 0.06805202 0.16524929 0.09364651 0.08226623 -0.08420228
0.18187962 0.21855283 0.16630898 0.11021046 0.108936705 0.15666026 -0.04243226 -0.109155
-0.07312974 -0.008567974 -0.12484531 -0.19532897 -0.032255396 -0.039962403 -0.021795593 0.123080775
0.037166033 -0.16771132 0.024334036 0.04321681 0.13615361 -0.07044343 -0.07820574 -0.19031747
-0.037002675 0.020960057 0.0030014927 0.01760988 -0.15705203 -0.1642659 0.10175782 0.18695745
0.24563934 0.17868537 0.12836705 0.15455438 0.21282932 0.15337816 0.29039145 0.17910926
0.09979298 -0.07442953 -0.029591141 0.0060212933 0.11612278 0.10739896 -0.119698174 -0.12374732
0.08792267 0.030392142 -0.015111085 0.008527215 0.13438645 -0.010348736 -0.09686903 -0.14910945
-0.05112497 -0.13149932 -0.009964069 -0.018507537 -0.08049094 0.05656431 0.07963522 0.09492332
-0.0293587 -0.003616035 -0.011947236 -0.06146584 -0.080903366 -0.20529921 -0.11291438 -0.17114687
0.02877062 -0.024835723 -0.117254235 -0.15177004 -0.08439467 -0.17117707 -0.09408515 -0.08338842
-0.14549543 -0.034978043 -0.014758047 0.072591625 -0.07283834 -0.00068942044 0.01994225 0.13559794
-0.00085817435 -0.04883645 -0.13378182 -0.07598067 0.014714878 0.079622746 0.09505222 0.039206613
-0.008364394 0.09783497 -0.024315828 0.026671514 0.07215719 0.17633507 -0.0661492 -0.21846269
-0.16110098 -0.15334478 -0.12919918 -0.028073318 0.01138367 0.031836372 0.15261468 0.06388072
0.011879225 -0.10868472 0.10781495 -0.054396268 0.06061345 -0.08989456 4.5318677e-05 -0.11437207
0.18466681 0.042579524 0.1515802 0.021780064 0.1555761 0.07333189 -0.013297 0.08652719
0.032847878 0.1523879 0.14959174 0.06060552 -0.03570582 0.15411691 0.142434 0.047404304
0.16835313 0.054546796 0.062282786 -0.018062012 -0.00794066 -0.036843184 0.09248559 -0.051963322
-0.04319968 -0.1750377 -0.13312377 -0.0841716 0.013767569 -0.017809661 -0.036798894 -0.085941434
-0.10630232 0.043627687 -0.060929004 -0.051656637 -0.016258465 0.18683507 0.06317818 0.13976118
0.1572589 0.1119605 -0.26534882 -0.3530966 -0.28360575 -0.12137938 -0.21101327 0.027244035
-0.022380184 0.15914378 0.19383769 0.1883601 0.057131335 0.08391629 0.05147559 0.032490004
0.06188001 -0.0005836981 0.028214213 -0.12770234 0.11256232 0.055243023 0.06077534 0.0075319954
-0.14312819 -0.18718188 -0.16199172 -0.061996594 -0.08939107 -0.05031871 -0.0072130347 -0.040635157
-0.087930836 0.044762734 -0.015520589 0.10245066 0.21170557 0.18894649 -0.14473303 -0.05885959
0.051262606 0.09492743 0.22207555 0.20387284 -0.011812584 0.078897 0.04462215 0.20032598
00000000: 1ba9 ff3b 8b1c 7bbd 450b 77be b0fd 0fbe
00000010: 68bc 1dbe ee02 b7bc 537d 59bc d843 03be
00000020: defa bebd 4628 50be 9472 39be f55e f7bd
00000030: 75b5 1fbe 1da4 12be 41ea 953d bec2 e7bd
00000040: beb5 9bbd b75d 8dbd 5391 613d 24b7 3f3d
00000050: 966e 233e 4f40 3a3d 4917 37bd db03 5ebd
00000060: 7a67 d4bc 986e a4bd 874c 023d fbae e53d
00000070: 34d0 363d f14b df3c 21da 28bd 3b37 edbd
00000080: 2215 92bd b9a6 50bd 05ae 32bd 29f4 59bd
00000090: ea17 583d 6f11 7b3b 8127 893c b2d1 52bd
000000a0: d6d6 cbbb 368c d93d 56b1 433e dc5e 8b3d
000000b0: 1c37 293e bec9 bf3d 327b a83d 3f72 acbd
000000c0: a73e 3a3e 50cc 5f3e e74c 2a3e 06b6 e13d
000000d0: 351a df3d 8c6b 203e 73cd 2dbd a88c dfbd
000000e0: 0cc5 95bd b060 0cbc e6ae ffbd 5104 48be
000000f0: 3c1e 04bd 9eaf 23bd ac8c b2bc c611 fc3d
00000100: 693b 183d 84bc 2bbe 2c58 c73c 1c04 313d
00000110: da6b 0b3e a544 90bd 552a a0bd 95e2 42be
00000120: 1e90 17bd 6db4 ab3c b1b4 443b 9842 903c
00000130: 3fd2 20be 5235 28be 6766 d03d c671 3f3e
00000140: e188 7b3e 4cf9 363e a772 033e 8143 1e3e
00000150: eeef 593e 2a0f 1d3e 30ae 943e 6b68 373e
00000160: 4360 cc3d 826e 98bd 1f69 f2bc 454e c53b
00000170: c8d1 ed3d fcf3 db3d 5124 f5bd 3c6f fdbd
00000180: cd10 b43d f1f8 f83c 7c94 77bc bbb5 0b3c
00000190: 9a9c 093e bf8d 29bc 4563 c6bd 26b0 18be
000001a0: 6b68 51bd c2a7 06be 5640 23bc 1e9d 97bc
000001b0: 6fd8 a4bd faaf 673d ca17 a33d 2867 c23d
000001c0: a881 f0bc 00fb 6cbb 57be 43bc 9bc3 7bbd
000001d0: aab0 a5bd f539 52be a83f e7bd 2041 2fbe
000001e0: 5db0 eb3c 4974 cbbc fd22 f0bd 9b69 1bbe
000001f0: 1dd7 acbd 0b49 2fbe b7af c0bd 8cc7 aabd
00000200: c1fc 14be 2345 0fbd bccb 71bc ebaa 943d
00000210: 452c 95bd 39ba 34ba ee5d a33c 30da 0a3e
00000220: 1bf7 60ba bb08 48bd 1afe 08be c19b 9bbd
00000230: ac16 713c 4011 a33d bdaa c23d 1d97 203d
00000240: d00a 09bc b35d c83d fd31 c7bc 387e da3c
00000250: 26c7 933d 2e91 343e 3b79 87bd afb4 5fbe
00000260: a8f7 24be 6a06 1dbe ca4c 04be 04fa e5bc
00000270: 9382 3a3c db66 023d 0647 1c3e e5d3 823d
00000280: 15a1 423c 1896 debd 16ce dc3d 9fce 5ebd
00000290: cf45 783d a41a b8bd 8f14 3e38 e73b eabd
000002a0: 4c19 3d3e de67 2e3d d737 1b3e 1b6c b23c
000002b0: 574f 1f3e 082f 963d a9db 59bc 2b35 b13d
000002c0: 7f8b 063d 930b 1c3e 942e 193e 7e3d 783d
000002d0: 4440 12bd d3d0 1d3e 38da 113e 042b 423d
000002e0: c364 2c3e 766c 5f3d 3c1c 7f3d c9f6 93bc
000002f0: 8b19 02bc e1e8 16bd 1669 bd3d 7ed7 54bd
00000300: 26f2 30bd 153d 33be 9951 08be 2962 acbd
00000310: 5f91 613c 91e5 91bc 70ba 16bd 1002 b0bd
00000320: 08b5 d9bd f2b2 323d b190 79bd e995 53bd
00000330: 7930 85bc b151 3f3e 9063 813d 8e1d 0f3e
00000340: 7a08 213e 8c4b e53d cddb 87be 14c9 b4be
00000350: c634 91be c195 f8bd dd13 58be e22e df3c
00000360: a656 b7bc 96f6 223e 637d 463e 78e1 403e
00000370: 8c02 6a3d 4edc ab3d 11d8 523d 3d14 053d
00000380: e575 7d3d 5103 19ba 7e21 e73c 67c4 02be
00000390: 1387 e63d 8246 623d 90ef 783d f5ce f63b
000003a0: 3290 12be 9bac 3fbe 28e1 25be 24f0 7dbd
000003b0: aa12 b7bd fe1a 4ebd 525b ecbb 0d71 26bd
000003c0: 1515 b4bd 2159 373d 124a 7ebc a7d1 d13d
000003d0: 58c9 583e 307b 413e e534 14be c116 71bd
000003e0: bdf8 513d 5069 c23d c667 633e 0bc4 503e
000003f0: 9189 41bc c094 a13d b7c5 363d 4122 4d3e

branch2.0.bias f4 [24]
-0.23346557 -0.08055872 0.015288883 -0.06689224 -0.0987516 -0.11577851 -0.034722015 0.020656126
-0.17205492 -0.16455065 -0.19370572 -0.09678557 -0.009849035 -0.09600146 -0.13071118 0.10502917
-0.122719474 0.02180609 -0.23317944 -0.12833586 -0.085010394 -0.12518701 -0.17122738 -0.17540313
00000000: 9911 6fbe f8fb a4bd 397e 7a3c ccfe 88bd
00000010: 473e cabd 491d edbd ac38 0ebd 0937 a93c
00000020: 2a2f 30be f77f 28be cb5a 46be 8337 c6bd
00000030: d95d 21bc 6a9c c4bd 27d9 05be 8919 d73d
00000040: 5954 fbbd afa2 b23c 97c6 6ebe 7a6a 03be
00000050: ee19 aebd 0631 00be 3b56 2fbe e19c 33be

branch2.4.weight f4 [12, 24, 5]
0.19777343 0.25879377 0.01009848 0.069093816 0.07347934 -0.14926976 -0.004891481 0.025360374
0.008531834 -0.0077309827 0.11630268 -0.029668877 0.034535844 -0.19349928 -0.17549141 -0.037262525
0.020303551 0.17525268 0.20366262 0.16677475 0.051135667 0.1405704 0.06783755 -0.014507165
0.07074871 -0.19957261 -0.098948084 -0.16080998 -0.083986 0.09895521 0.12942041 0.033652775
-0.04961816 0.06724741 -0.07083666 -0.043746028 0.21595469 -0.035024866 -0.076740235 0.16458765
-0.09863228 0.07454465 0.29145008 0.08288622 0.012716927 0.052656785 0.1969493 -0.15139388
-0.26432455 -0.28011277 0.12700212 0.04639599 0.04673457 0.078901954 -0.12956387 0.006028603
0.072809756 0.05769294 0.32294267 -0.025068503 -0.026264073 -0.16539407 -0.15680416 0.052102692
0.04282316 0.06700582 0.040977426 -0.008623883 -0.13589898 -0.0744772 -0.15167458 0.027254261
0.036817655 -0.20205688 -0.19801427 0.2572694 0.18192285 0.22671564 0.10457362 0.019015582
-0.060490213 -0.11218326 0.1517505 -0.07133327 0.0712493 -0.08933204 -0.059160847 -0.045785595
0.14547028 0.11349863 0.006431516 0.012218165 0.1287695 0.083641514 0.10009911 0.024682298
0.1886057 0.06937402 -0.02776382 0.031157259 0.08697656 0.22724567 0.11251765 0.0705649
-0.118422866 -0.102739565 -0.11743385 0.015015606 0.04028442 0.030551175 -0.046743903 -0.108095296
0.089011945 0.095314085 0.07622622 0.09038197 0.18211891 0.061581157 -0.10236036 -0.116453715
0.0029426732 0.3388288 -0.072311684 0.08869034 0.2207705 -0.10533432 -0.13152242 0.10479918
0.04508054 0.04390086 0.12838666 0.018381702 0.022210155 0.028318822 0.055713955 -0.10613102
-0.042294286 -0.1248393 0.15888147 0.1793165 0.0011751811 -0.17678419 0.003834595 0.05610813
0.087294765 0.11327141 0.16086422 -0.020113885 -0.003083783 -0.10784468 0.06692076 -0.055816498
-0.21619038 -0.0867 -0.08249006 -0.08681691 0.114165366 0.23979133 0.3253845 0.32214186
-0.08619648 0.20285614 0.20442843 0.031631663 0.043186046 0.11134468 -0.07485903 -0.24110298
-0.063722305 -0.20616889 -0.058314092 0.24095123 -0.11843054 -0.06309509 -0.047838185 -0.28728282
-0.13656336 0.03188352 0.24403556 0.00657021 0.14298345 -0.13078992 -0.08697854 0.04948778
0.07175611 -0.052303012 -0.29568684 -0.09924476 -0.05577645 -0.03051098 -0.028960815 0.054940306
-0.09773391 -0.06896954 0.060284473 -0.22484083 -0.08040971 0.14066643 0.11219973 0.15908116
0.05360559 0.13913724 -0.018953336 -0.0049120584 0.14090468 -0.020200612 0.10649875 0.047928583
0.14985734 0.04299367 0.0047429395 0.19834925 -0.038477592 -0.06498044 -0.074435286 0.043755673
0.00041861265 -0.13528712 -0.10653359 -0.0431578 -0.03503936 0.09688212 -0.24244016 -0.061616097
0.1748552 0.080393076 -0.032487635 0.06589601 0.14535801 -0.06062867 -0.08374867 -0.031659756
-0.039725605 -0.17322917 -0.041438926 -0.019568805 0.09398458 0.07709297 -0.045396797 -0.14920121
-0.058595542 0.07454491 0.02264823 -0.07192707 -0.24562201 0.16622578 -0.015435392 -0.05681862
-0.023619546 -0.080901995 -0.16926265 0.083178796 -0.00573345 -0.052826803 -0.045832604 0.008374392
00000000: 1e85 4a3e 9e80 843e 1874 253c 0f81 8d3d
00000010: 567c 963d 2cda 18be b748 a0bb 8fc0 cf3c
00000020: 1bc9 0b3c 2f54 fdbb 1930 ee3d 250c f3bc
00000030: 7575 0d3d ad24 46be 05b4 33be 97a0 18bd
00000040: a253 a63c 7075 333e ef8c 503e 00c7 2a3e
00000050: a273 513d b0f1 0f3e 6aee 8a3d 76af 6dbc
00000060: b3e4 903d c35c 4cbe 4ba5 cabd 5fab 24be
00000070: da00 acbd 07a9 ca3d c986 043e 7ed7 093d
00000080: 693c 4bbd 03b9 893d d012 91bd 092f 33bd
00000090: 3a23 5d3e 3c76 0fbd fc29 9dbd aa89 283e
000000a0: b9ff c9bd deaa 983d f238 953e 40c0 a93d
000000b0: a85a 503c a4ae 573d 14ad 493e ff06 1bbe
000000c0: 8c55 87be f16a 8fbe d80c 023e b909 3e3d
000000d0: c06c 3f3d 5997 a13d 64ac 04be 968b c53b
000000e0: 481d 953d 6f4f 6c3d be58 a53e 765c cdbc
000000f0: c127 d7bc 105d 29be 4591 20be a269 553d
00000100: 5667 2f3d 593a 893d f2d7 273d 304b 0dbc
00000110: 1a29 0bbe 8187 98bd 9550 1bbe 5444 df3c
00000120: 1cce 163d 00e8 4ebe 41c4 4abe d1b8 833e
00000130: fc49 3a3e 2528 683e b22a d63d 91c6 9b3c
00000140: 96c4 77bd 56c0 e5bd 7c64 1b3e 2d17 92bd
00000150: 27eb 913d b7f3 b6bd a552 72bd ad89 3bbd
00000160: 29f6 143e f871 e83d 77bf d23b b32e 483c
00000170: 27dc 033e 3e4c ab3d c300 cd3d 8832 ca3c
00000180: da21 413e f713 8e3d f370 e3bc 823d ff3c
00000190: c420 b23d 17b3 683e a76f e63d 5584 903d
000001a0: b087 f2bd 1f69 d2bd 2981 f0bd 0404 763c
000001b0: 4701 253d 7546 fa3c 8976 3fbd 1161 ddbd
000001c0: e54b b63d 0834 c33d 7e1c 9c3d 2f1a b93d
000001d0: 617d 3a3e 863c 7c3d 4fa2 d1bd 497f eebd
000001e0: ddd9 403b f87a ad3e 2618 94bd 48a3 b53d
000001f0: a911 623e 85b9 d7bd d0ad 06be f4a0 d63d
00000200: 5fa6 383d 63d1 333d cb77 033e 3995 963c
00000210: 12f2 b53c e0fc e73c 5134 643d 385b d9bd
00000220: c63c 2dbd bfab ffbd d3b1 223e bf9e 373e
00000230: 8908 9a3a ea06 35be d44d 7b3b a3d1 653d
00000240: 99c7 b23d d7fa e73d 97b9 243e e0c5 a4bc
00000250: 4b19 4abb acdd dcbd c00d 893d d79f 64bd
00000260: 0361 5dbe c58f b1bd 8cf0 a8bd 10cd b1bd
00000270: 88cf e93d dc8b 753e cc98 a63e c7ef a43e
00000280: c887 b0bd 85b9 4f3e b055 513e 3490 013d
00000290: dae3 303d ae08 e43d b14f 99bd b3e3 76be
000002a0: d780 82bd f01d 53be c2da 6ebd ebbb 763e
000002b0: b68b f2bd 0038 81bd f9f1 43bd bc16 93be
000002c0: 44d7 0bbe 4b98 023d 75e4 793e eb4a d73b
000002d0: 416a 123e cbed 05be ce21 b2bd b3b3 4a3d
000002e0: def4 923d af3b 56bd 4464 97be d640 cbbd
000002f0: d975 64bd 2af2 f9bc 3b3f edbc 1609 613d
00000300: b728 c8bd e73f 8dbd daec 763d ad3c 66be
00000310: d9ad a4bd dc0a 103e f9c8 e53d 2ce6 223e
00000320: 8991 5b3d fe79 0e3e 0744 9bbc 55f5 a0bb
00000330: 5149 103e c17b a5bc 041c da3d c350 443d
00000340: 3474 193e 211a 303d a96a 9b3b 111c 4b3e
00000350: ae9a 1dbd 7714 85bd 8771 98bd 2639 333d
00000360: 3d79 db39 b588 0abe 482e dabd 3cc6 30bd
00000370: 6f85 0fbd 226a c63d 3c42 78be 2961 7cbd
00000380: 3e0d 333e 20a5 a43d c111 05bd 7df4 863d
00000390: bbd8 143e c555 78bd 6c84 abbd a9ad 01bd
000003a0: 51b7 22bd fd62 31be ddbb 29bd c24e a0bc
000003b0: fd7a c03d ebe2 9d3d fef1 39bd 34c8 18be
000003c0: e101 70bd 00ab 983d c888 b93c 804e 93bd
000003d0: 5684 7bbe 1737 2a3e bae4 7cbc a4ba 68bd
000003e0: c77d c1bc f2af a5bd 3053 2dbe a559 aa3d
000003f0: aadf bbbb eb60 58bd f8ba 3bbd bf34 093c

branch2.4.bias f4 [12]
0.032317203 -0.017281504 -0.033002317 -0.13553146 0.051687747 0.09331828 -0.16353108 -0.070863426
0.03413455 0.0030491445 -0.09316924 -0.086728565
00000000: 0b5f 043d f191 8dbc 702d 07bd c2c8 0abe
00000010: 88b6 533d a81d bf3d b174 27be d820 91bd
00000020: abd0 0b3d 28d4 473b 84cf bebd bf9e b1bd

branch3.0.weight f4 [8, 16, 6]
-0.18520153 -0.082541056 -0.17479117 -0.1379475 -0.06530713 -0.03618059 -0.21176288 -0.13981858
-0.17912711 -0.120555736 -0.008771737 0.13574368 -0.05365372 -0.11732005 -0.10609699 -0.1414632
-0.18236494 -0.07471578 0.0018032917 -0.10246964 -0.09042781 -0.08167103 -0.0014841098 0.07703957
-0.15653309 -0.18630685 -0.1052663 -0.060455788 -0.029187066 0.05008878 -0.17616694 -0.063761145
-0.19543457 -0.17308035 -0.18850158 -0.20016474 0.049772296 0.031014515 -0.034646794 -0.13692842
-0.2100409 -0.118739925 0.13251914 0.21530192 0.23229046 0.28092656 0.19832113 0.18148074
-0.107784465 0.04615579 -0.01302243 -0.08463014 -0.19290267 -0.07065698 -0.21018511 -0.16745022
-0.105152145 -0.06898728 -0.08105162 -0.037149828 -0.1260462 0.0314861 -0.07406316 -0.11556098
-0.1042736 0.011002479 -0.2507059 -0.23206839 -0.1643918 -0.017279489 -0.056151737 0.08577476
-0.01624113 -0.14352909 -0.06643553 -0.1932062 -0.025767468 0.008503481 -0.03673342 -0.12298942
0.015512412 -0.12694588 -0.0809549 -0.11661905 0.076179385 0.22012691 0.19143425 0.009962773
0.06277621 -0.11997005 -0.20541677 -0.059230525 0.13311833 0.2143891 0.17409496 0.08304597
0.031815857 -0.07586422 -0.06068944 -0.09177884 -0.14921908 -0.12841511 0.10325738 0.10589465
0.058868732 0.048006184 -0.02197596 -0.25770405 0.029916434 0.05047104 0.048075225 -0.055946734
-0.018613212 0.107546836 0.2891088 0.22247198 0.24780084 0.010722569 -0.04573335 -0.054804385
-0.071021646 -0.16423579 -0.007822205 -0.10807875 -0.15091705 -0.1680042 0.23313618 0.0069791973
0.14456198 0.0012895832 0.09617584 0.17493013 0.29725203 0.26200655 0.21845195 0.32419842
0.19217467 0.18833809 -0.20229259 -0.31985217 -0.32324547 -0.22760768 -0.12208886 -0.0068976656
0.16842526 0.12724009 0.1651574 0.037487417 0.10162034 0.119011454 0.046784617 0.100489214
-0.088273115 -0.047901217 -0.031960186 0.03131762 0.07920864 -0.019258134 -0.055484876 -0.06860759
-0.039311267 0.036898486 0.06134091 0.042304173 -0.08523744 -0.040229794 -0.04931032 -0.066545375
-0.15054521 -0.21344243 -0.036792517 0.07034517 0.03393064 0.1677401 -0.025974104 0.025853012
0.15546574 0.13985671 0.22484106 0.24791184 -0.05234943 -0.031379208 -0.030791365 -0.05342204
-0.0738582 0.0038676774 -0.21146831 -0.28453785 -0.4112983 -0.38858944 -0.32272312 -0.08742712
0.0094439695 0.023366464 0.024254695 0.059813607 0.14484702 -0.0347764 -0.08299929 -0.036966763
0.06975082 0.026489802 0.11967082 0.22190435 0.12873864 0.033306234 -0.08668438 -0.013027941
0.009655861 -0.09437022 -0.115820535 0.040444765 0.0994403 0.106823295 0.06772286 0.06608493
0.011502495 0.13733917 0.036840163 0.23323993 0.082944706 0.00030849737 0.008782237 -0.021051604
-0.13755992 -0.1801481 -0.14653544 -0.07887081 -0.1634346 -0.24791141 -0.21849063 -0.30083585
-0.2662936 0.0026436807 0.041005462 0.11580609 0.19637471 -0.09657913 -0.103565514 -0.1973898
-0.0026807385 -0.16882607 -0.16480051 -0.1051708 -0.09426395 -0.08098648 0.20084743 0.022668375
0.1355275 -0.0031991932 0.04615046 -0.039975338 -0.009821825 0.030029288 0.12032032 0.052206248
00000000: 78a5 3dbe 490b a9bd 75fc 32be 1c42 0dbe
00000010: bfbf 85bd 1932 14bd 5ed8 58be 9a2c 0fbe
00000020: 196d 37be ede5 f6bd 55b7 0fbc 6400 0b3e
00000030: 01c4 5bbd 7f45 f0bd 6149 d9bd bbdb 10be
00000040: e0bd 3abe 9604 99bd 6e5c ec3a 9adb d1bd
00000050: 3732 b9bd 2443 a7bd 7686 c2ba ecc6 9d3d
00000060: 364a 20be 39c7 3ebe dc95 d7bd 7da0 77bd
00000070: b719 efbc e429 4d3d 1b65 34be 3495 82bd
00000080: 0020 48be fa3b 31be 8f06 41be fcf7 4cbe
00000090: 09de 4b3d 2712 fe3c cce9 0dbd f736 0cbe
000000a0: f614 57be eb2d f3bd 19b3 073e 1b78 5c3e
000000b0: 8ddd 6d3e 9bd5 8f3e b214 4b3e 16d6 393e
000000c0: 1abe dcbd db0d 3d3d 085c 55bc 9152 adbd
000000d0: 4788 45be 9bb4 90bd c43a 57be 1278 2bbe
000000e0: 025a d7bd 3449 8dbd 64fe a5bd 6b2a 18bd
000000f0: 4112 01be 92f7 003d 6dae 97bd 3cab ecbd
00000100: 668d d5bd be43 343c 865c 80be 56a3 6dbe
00000110: 5356 28be b78d 8dbc 5dff 65bd adaa af3d
00000120: 1e0c 85bc 4af9 12be 5a0f 88bd d9d7 45be
00000130: 4c16 d3bc 2f52 0b3c c875 16bd e1e1 fbbd
00000140: c627 7e3c 1afe 01be afcb a5bd f8d5 eebd
00000150: f003 9c3d f368 613e 5707 443e e63a 233c
00000160: d090 803d dcb2 f5bd c658 52be b59b 72bd
00000170: 2c50 083e d188 5b3e f345 323e 0114 aa3d
00000180: 5851 023d b35e 9bbd 7e95 78bd 8bf6 bbbd
00000190: e3cc 18be 407f 03be 9b78 d33d 4bdf d83d
000001a0: 5720 713d 22a2 443d ee06 b4bc c9f1 83be
000001b0: 4f13 f53c b9ba 4e3d 87ea 443d 6728 65bd
000001c0: bc7a 98bc 8441 dc3d 1206 943e b2cf 633e
000001d0: 81bf 7d3e b7ad 2f3c e552 3bbd 907a 60bd
000001e0: cc73 91bd 6d2d 28be b528 00bc 6458 ddbd
000001f0: 008a 1abe 4b09 2cbe 40bb 6e3e c0b1 e43b
00000200: 0e08 143e 3b07 a93a d7f7 c43d e220 333e
00000210: 6b31 983e b925 863e deb1 5f3e 56fd a53e
00000220: 70c9 443e b3db 403e ca25 4fbe aac3 a3be
00000230: 6e80 a5be fd11 69be b909 fabd d005 e2bb
00000240: ac77 2c3e 3a4b 023e 051f 293e 688c 193d
00000250: 531e d03d 47bc f33d 3aa1 3f3d 4acd cd3d
00000260: 89c8 b4bd 1134 44bd afe8 02bd e846 003d
00000270: 2438 a23d 3cc3 9dbc 1c44 63bd 2382 8cbd
00000280: da04 21bd de22 173d 9b40 7b3d 2447 2d3d
00000290: f890 aebd ffc7 24bd 9ef9 49bd f148 88bd
000002a0: 8628 1abe a790 5abe c0b3 16bd 2111 903d
000002b0: dbfa 0a3d 10c4 2b3e a5c7 d4bc b2c9 d33c
000002c0: 6932 1f3e 9936 0f3e bc3c 663e 9adc 7d3e
000002d0: 5b6c 56bd 7c87 00bd 2c3e fcbc 12d1 5abd
000002e0: f842 97bd dc78 7d3b 268b 58be f2ae 91be
000002f0: b195 d2be 32f5 c6be f73b a5be fd0c b3bd
00000300: e1ba 1a3c 076b bf3c c8b1 c63c 1dff 743d
00000310: c752 143e b371 0ebd 88fb a9bd 766a 17bd
00000320: 85d9 8e3d 2401 d93c fa15 f53d e53a 633e
00000330: 10d4 033e 1e6c 083d 9587 b1bd 2573 55bc
00000340: 9e33 1e3c 2d45 c1bd 5133 edbd 69a9 253d
00000350: 5ba7 cb3d 2cc6 da3d 48b2 8a3d 8957 873d
00000360: f674 3c3c a4a2 0c3e b6e5 163d 73d6 6e3e
00000370: eade a93d d1bd a139 5fe3 0f3c 6a74 acbc
00000380: 82dc 0cbe be78 38be 630d 16be 0587 a1bd
00000390: 665b 27be 7ddc 7dbe 02bc 5fbe 2807 9abe
000003a0: a257 88be 9a41 2d3b 58f5 273d be2b ed3d
000003b0: 7416 493e 47cb c5bd 281a d4bd 8d20 4abe
000003c0: 54af 2fbb bee0 2cbe 77c1 28be ca63 d7bd
000003d0: 750d c1bd 3ddc a5bd f3aa 4d3e 07b3 b93c
000003e0: b9c7 0a3e 8ea9 51bb 4408 3d3d 2ebd 23bd
000003f0: b8eb 20bc fbff f53c 806a f63d 38d6 553d

branch3.0.bias f4 [8]
0.011600603 0.17498584 -0.109228164 -0.020704035 0.114110984 -0.079904556 0.016685719 -0.05586432
00000000: 7510 3e3c 7d2f 333e 04b3 dfbd 829b a9bc
00000010: 05b3 e93d 00a5 a3bd 7db0 883c fcd1 64bd

branch3.4.weight f4 [8, 8, 4]
-0.014672286 -0.25125137 -0.18456024 0.063152544 0.08824603 0.22825478 0.28808153 0.45265922
0.10662081 0.08368734 -0.1855218 -0.016363267 0.014911685 -0.0069861584 0.10427638 0.2036553
0.0654754 0.053392407 0.16853978 0.06485532 0.23933545 0.16027202 0.094899304 0.17330262
-0.010412279 -0.050763465 -0.022748766 -0.15803404 -0.2794413 -0.28700158 -0.17879283 0.11246055
-0.1719556 0.22583827 0.22827886 0.1266443 -0.065545894 -0.3169065 -0.2859013 -0.16027294
0.033317998 -0.063015856 0.18550493 0.15069471 -0.10954395 -0.21909921 -0.19697352 0.044908132
0.07185087 -0.08771883 -0.14729431 -0.38028952 -0.040883876 -0.06362021 -0.20327596 0.11231222
0.029630618 -0.0064586923 -0.05631741 0.19248773 0.09069615 0.21907826 0.20539969 0.05074412
0.1442342 0.1953298 0.1979649 0.22168225 0.06342756 0.1690828 -0.29216334 -0.14273246
-0.14287086 -0.0053701834 -0.21673566 -0.0150276 0.09655867 0.16393214 -0.24319848 -0.33006388
0.14244513 -0.043372758 -0.09072773 0.013837931 0.012719247 -0.16352397 -0.26646212 0.05191575
0.053974 0.10526681 0.11923679 0.1585751 -0.08791196 -0.033538643 -0.0836429 -0.17599434
0.35749465 0.25805724 0.093669124 0.13396062 -0.08671389 -0.2455312 -0.06959833 -0.07856543
0.03673361 0.08235026 0.09527163 0.05399855 -0.061953686 0.11304262 0.019626085 -0.19132815
0.17305857 -0.2876902 -0.2589809 -0.36707613 -0.30204004 -0.08436776 0.0054359036 0.028299194
-0.08886318 0.21186607 0.12345484 0.11094542 0.26812047 -0.091199964 -0.048749372 0.0015633615
0.15708573 0.06951202 0.01389302 -0.014138617 0.11606811 0.04999811 -0.017437983 0.015521716
-0.012681161 -0.133652 -0.18838961 0.029031118 0.031537026 0.2153994 0.05708365 0.00576189
0.35641652 0.17896985 0.09407113 -0.0701426 0.26886794 -0.16063206 -0.20230062 -0.32357728
-0.29961333 -0.28543767 -0.26506856 -0.08896173 0.14676768 0.0027718379 -0.0063447095 0.08140001
-0.20824775 -0.092133835 0.15323272 0.121103816 0.30585736 0.06374929 0.008647799 -0.09919924
-0.027822452 -0.16254894 -0.12100287 -0.0021751518 -0.029590786 0.34837666 -0.21671978 -0.084729224
0.024286518 -0.12020966 -0.24661104 0.10046428 0.15191962 -0.029543865 0.11640819 -0.01729136
-0.17595348 -0.09973228 -0.13837518 0.16471411 0.09321579 0.18360569 -0.030585757 0.022781245
0.36399096 -0.042855483 -0.015914692 0.05035669 -0.32135943 -0.2933082 -0.03622374 -0.12395348
-0.039169792 0.18025486 0.24305932 0.06196032 -0.16958365 -0.099798076 0.070756145 0.01060513
-0.117925934 -0.036142368 -0.015134465 -0.12635973 -0.2225429 -0.121544056 -0.13518049 -0.22864003
0.14410226 -0.027374005 0.07815888 0.025724214 -0.028960207 0.106482506 0.11392813 0.31404832
-0.038729545 0.027281651 0.17466277 0.13257602 0.2004528 -0.11391234 0.05987063 0.049168766
-0.058159877 0.22142991 -0.03400214 -0.24872573 -0.0704975 -0.038487922 0.09844845 0.13984911
-0.23468582 0.21529783 0.034144975 -0.1525806 0.054585647 -0.010840037 0.18134543 0.093648575
-0.022384822 -0.19629903 -0.21025467 -0.17455608 -0.120011166 0.11576234 -0.042740677 -0.010555699
00000000: 0764 70bc 05a4 80be 5cfd 3cbe 1f56 813d
00000010: 56ba b43d 9fbb 693e 6c7f 933e f3c2 e73e
00000020: 035c da3d 4564 ab3d 6df9 3dbe 420c 86bc
00000030: 2450 743c 25ec e4bb db8e d53d 048b 503e
00000040: f717 863d ffb1 5a3d b195 2c3e ded2 843d
00000050: 5a14 753e 591e 243e 915a c23d 3e76 313e
00000060: 4398 2abc 5aed 4fbd 9f5b babc add3 21be
00000070: ee12 8fbe dff1 92be 7815 37be b851 e63d
00000080: 2115 30be 2642 673e efc1 693e 0baf 013e
00000090: ed3c 86bd 9241 a2be a861 92be 971e 24be
000000a0: 7478 083d 750e 81bd 01f5 3d3e b74f 1a3e
000000b0: 9458 e0bd 8b5b 60be 6db3 49be 97f1 373d
000000c0: 8d26 933d eea5 b3bd 52d4 16be 4fb5 c2be
000000d0: da75 27bd 504b 82bd 9327 50be f303 e63d
000000e0: e9bb f23c 70a3 d3bb 16ad 66bd 811b 453e
000000f0: e7be b93d 0d56 603e 4c54 523e 11d9 4f3d
00000100: 21b2 133e 8904 483e 50b7 4a3e ac00 633e
00000110: 4fe6 813d 0b24 2d3e 6f96 95be 7528 12be
00000120: bd4c 12be 5df8 afbb f4ef 5dbe 5336 76bc
00000130: 8dc0 c53d d4dd 273e 0609 79be 22fe a8be
00000140: 23dd 113e a2a7 31bd 76cf b9bd 7db8 623c
00000150: 6364 503c d472 27be b96d 88be 9ca5 543d
00000160: d713 5d3d 2096 d73d 6b32 f43d 8361 223e
00000170: 300b b4bd d15f 09bd f84c abbd dc37 34be
00000180: 8a09 b73e 1420 843e 99d5 bf3d f92c 093e
00000190: 0d97 b1bd 886c 7bbe 9289 8ebd eae6 a0bd
000001a0: fb75 163d 41a7 a83d c61d c33d 952d 5d3d
000001b0: 26c3 7dbd e482 e73d e2c6 a03c 87eb 43be
000001c0: 4436 313e 214c 93be 2599 84be 67f1 bbbe
000001d0: fea4 9abe 01c9 acbd aa1f b23b b6d3 e73c
000001e0: e6fd b5bd 6bf3 583e e4d5 fc3d 5a37 e33d
000001f0: 1647 893e 0cc7 babd 6cad 47bd b5e9 cc3a
00000200: 15db 203e 515c 8e3d 8d9f 633c a8a5 67bc
00000210: 1eb5 ed3d d1ca 4c3d 1ada 8ebc cc4e 7e3c
00000220: a5c4 4fbc 12dc 08be 35e9 40be abd2 ed3c
00000230: f82c 013d a991 5c3e 8cd0 693d 3dce bc3b
00000240: 3a7c b63e df43 373e 5da8 c03d eca6 8fbd
00000250: 0fa9 893e bb7c 24be e527 4fbe ecab a5be
00000260: eb66 99be e324 92be 11b7 87be 9131 b6bd
00000270: 444a 163e b9a7 353b 48e7 cfbb 0cb5 a63d
00000280: e63e 55be aab0 bcbd 0ae9 1c3e 4705 f83d
00000290: 5699 9c3e fd8e 823d 7faf 0d3c f928 cbbd
000002a0: e9eb e3bc 3b73 26be 5ad0 f7bd fe8c 0ebb
000002b0: 6068 f2bc 6d5e b23e caeb 5dbe 8486 adbd
000002c0: 85f4 c63c 7b30 f6bd 9b87 7cbe 37c0 cd3d
000002d0: d190 1b3e fa05 f2bc 6b67 ee3d 9ca6 8dbc
000002e0: 262d 34be 7040 ccbd 39b2 0dbe d1aa 283e
000002f0: ece7 be3d 2103 3c3e fb8e fabc bc9f ba3c
00000300: 065d ba3e 3b89 2fbd 875f 82bc d142 4e3d
00000310: 3989 a4be 7e2c 96be 585f 14bd 52db fdbd
00000320: 8170 20bd bb94 383e 8be4 783e 1bca 7d3d
00000330: 56a7 2dbe ef62 ccbd 99e8 903d 24c1 2d3c
00000340: 2783 f1bd 050a 14bd 8cf6 77bc 7264 01be
00000350: 49e2 63be 17ec f8bd c16c 0abe 9d20 6abe
00000360: 8b8f 133e 733f e0bc c311 a03d 96bb d23c
00000370: f53d edbc 8013 da3d 2753 e93d f1ca a03e
00000380: dfa2 1ebd c57d df3c ccda 323e 02c2 073e
00000390: 8043 4d3e df4a e9bd e83a 753d 3065 493d
000003a0: 0d39 6ebd 86be 623e d445 0bbd f5b1 7ebe
000003b0: fe60 90bd 83a5 1dbd 579f c93d 9b34 0f3e
000003c0: 7b51 70be 0977 5c3e 9adb 0b3d 173e 1cbe
000003d0: 3395 5f3d 699a 31bc 9eb2 393e d3ca bf3d
000003e0: 6060 b7bc 9d02 49be 004d 57be d4be 32be
000003f0: 6ac8 f5bd ce14 ed3d d910 2fbd cff1 2cbc

branch3.4.bias f4 [8]
-0.081432745 -0.107713684 -0.10809523 -0.036723953 -0.24485123 0.044157002 0.019486556 0.036493003
00000000: 36c6 a6bd fe98 dcbd 0861 ddbd db6b 16bd
00000010: 48ba 7abe f9dd 343d 45a2 9f3c b079 153d

branch5.0.weight f4 [16, 16, 13]
-0.14774124 -0.1740549 -0.15066063 -0.052505292 0.025164824 0.08112358 -0.003807975 0.030410552
-0.02704786 -0.04670784 -0.0684653 -0.12403287 -0.11223227 -0.16360427 -0.13889642 -0.20058845
-0.15838777 -0.17292973 -0.02038545 -0.06632473 0.021823341 0.017638978 -0.064001344 0.052168403
0.03597342 0.06053653 0.14744061 0.09099721 -0.031989157 -0.08289928 0.008809765 -0.08926244
-0.19189744 -0.24071383 -0.2094378 -0.08706968 -0.08140319 -0.10465987 -0.2656567 0.16435565
0.082168326 0.006188884 -0.051134806 0.066648975 -0.029990131 0.22142123 0.3232771 0.2683153
0.22327544 0.09731682 -0.14671965 -0.22565675 0.028955722 0.027763283 0.06506967 0.055396285
-0.019753493 0.010730432 -0.060471725 -0.08532641 -0.14403963 -0.14132796 -0.16382678 -0.2348817
-0.15637346 -0.028533999 -0.034216158 -0.062275697 -0.07834866 -0.15303642 -0.119371004 -0.12970345
-0.059003886 -0.09232951 -0.010800807 0.0634698 -0.052774783 -0.14536509 0.04371304 -0.06704932
-0.034430463 0.00223972 -0.11348864 -0.106877014 -0.2087435 -0.05416806 0.06993871 0.07920044
0.12371405 0.020308748 -0.17341779 0.17821586 0.0802926 -0.07691173 -0.067093164 0.0014293483
-0.0046195355 -0.050546013 -0.065195866 0.018287925 -0.108497255 -0.013421272 -0.020093072 0.086121306
0.10749043 0.038587507 -0.015517783 0.016879732 0.0929018 0.056647018 0.09198403 0.12015056
0.057408113 -0.13337445 -0.051454075 -0.13213497 -0.15228681 0.2059353 0.08837656 0.119667776
0.059776768 -0.013000364 -0.05796556 -0.031244958 -0.2226635 -0.2963558 -0.22898945 -0.120088324
-0.12486118 -0.05514005 0.18425232 0.13270625 0.078643955 0.12351053 0.030614873 0.07234394
0.06133839 0.0350229 -0.016378663 -0.00065362314 0.02801919 -0.106917605 -0.09043365 0.091485746
0.092474595 0.10285359 0.09899535 0.08418345 0.03717985 -0.0021269035 0.039536405 -0.008560267
-0.024949491 -0.2343983 -0.26183447 -0.2696078 -0.1299213 -0.18052834 -0.2020548 -0.19713145
-0.042575832 0.010795402 0.17115161 0.115452036 0.084800966 -0.0025991634 -0.03468888 -0.058883186
0.0011675569 0.062293738 0.12748678 0.039529983 0.091088355 0.07056852 -0.081446245 -0.03574683
-0.17880024 -0.1880462 -0.19234692 -0.0746203 -0.083781496 0.05358387 0.15332426 -0.013558913
-0.06742855 0.022407522 0.05323523 -0.025355881 -0.019750787 0.006955975 0.027751146 0.11432496
0.05401282 0.055363256 0.014294044 0.006074235 -0.0063409433 0.032052137 -0.107444845 -0.12384623
-0.09977562 -0.030414017 0.07418374 0.027477058 0.0730146 -0.09311385 -0.1368523 0.0026438371
0.006223619 -0.11357726 -0.17341602 -0.16187693 -0.089390755 -0.012999557 0.015588914 0.036052678
0.18903099 -0.014318562 0.019856147 -0.04178605 -0.07968172 0.086309165 0.0062517384 -0.0696268
-0.070282556 -0.089658365 -0.032444626 -0.09460613 -0.0751738 -0.02868126 -0.012395187 -0.13798667
-0.025590807 -0.12018229 -0.030670693 -0.041528706 0.050064195 0.12541613 0.06627881 0.083670534
0.011411055 -0.07030443 -0.071536824 -0.021305665 0.069030926 -0.003100714 -0.032173745 -0.06029761
0.010696882 0.21743704 0.12601992 0.0506964 0.06702605 0.006058892 0.013856369 0.054480795
00000000: 7b49 17be 733b 32be c846 1abe ca0f 57bd
00000010: 7626 ce3c 1f24 a63d 388f 79bb 8d1f f93c
00000020: 7993 ddbc b850 3fbd 8937 8cbd f204 febd
00000030: 08da e5bd e187 27be dd3a 0ebe 0f67 4dbe
00000040: 6730 22be 7e14 31be 63ff a6bc 43d5 87bd
00000050: ddc6 b23c 9e7f 903c 2313 83bd 89ae 553d
00000060: dd58 133d 27f5 773d acfa 163e bf5c ba3d
00000070: 1007 03bd 19c7 a9bd d556 103c 3acf b6bd
00000080: c380 44be b07d 76be dd76 56be 9751 b2bd
00000090: b7b6 a6bd ea57 d6bd 2804 88be d94c 283e
000000a0: de47 a83d 1fcc ca3b bb72 51bd 427f 883d
000000b0: ddad f5bc 3fbc 623e 9384 a53e 9f60 893e
000000c0: 51a2 643e 0a4e c73d ad3d 16be 9012 67be
000000d0: 8d34 ed3c d36f e33c 3f43 853d 37e7 623d
000000e0: 14d2 a1bc b2ce 2f3c 33b1 77bd 9dbf aebd
000000f0: 207f 13be 47b8 10be 35c2 27be d484 70be
00000100: 5d20 20be 22c0 e9bc 3e26 0cbd cd14 7fbd
00000110: 4375 a0bd 94b5 1cbe c978 f4bd fbd0 04be
00000120: 0fae 71bd 4117 bdbd def5 30bc 74fc 813d
00000130: 5f2a 58bd 96da 14be 720c 333d 2751 89bd
00000140: f506 0dbd 44c8 123b bb6c e8bd 56e2 dabd
00000150: dbc0 55be 54df 5dbd 073c 8f3d d733 a23d
00000160: cb5d fd3d 885e a63c 6f94 31be 387e 363e
00000170: 7270 a43d e683 9dbd 2468 89bd f858 bb3a
00000180: 795f 97bb 5609 4fbd 6985 85bd 8fd0 953c
00000190: cf33 debd e5e4 5bbc 3a9a a4bc 5e60 b03d
000001a0: f123 dc3d ef0d 1e3d 4d3e 7ebc 5d47 8a3c
000001b0: 4d43 be3d b406 683d 2062 bc3d 7f11 f63d
000001c0: c524 6b3d 5093 08be 82c1 52bd 644e 07be
000001d0: 13f1 1bbe b4e0 523e c5fe b43d 6114 f53d
000001e0: 7cd8 743d 7bff 54bc 4c6d 6dbd 6df5 ffbc
000001f0: e701 64be f3bb 97be 367c 6abe def0 f5bd
00000200: 38b7 ffbd 88da 61bd a4ac 3c3e 26e4 073e
00000210: 1510 a13d 17f3 fc3d 0bcc fa3c 0f29 943d
00000220: f73d 7b3d 2c74 0f3d 8c2c 86bc e857 2bba
00000230: 8088 e53c 9ef7 dabd 4735 b9bd e15c bb3d
00000240: 5263 bd3d e7a4 d23d 13be ca3d 5f68 ac3d
00000250: e649 183d 8563 0bbb edf0 213d 5d40 0cbc
00000260: e062 ccbc 1c06 70be 2b0f 86be 090a 8abe
00000270: 170a 05be 6cdc 38be 74e7 4ebe d4dc 49be
00000280: ff63 2ebd 33df 303c 5e42 2f3e 1e72 ec3d
00000290: 21ac ad3d ba56 2abb ed15 0ebd 7f2f 71bd
000002a0: b508 993a b827 7f3d e58b 023e 31ea 213d
000002b0: 888c ba3d 3a86 903d 4acd a6bd 456b 12bd
000002c0: 6917 37be 2f8f 40be 97f6 44be 87d2 98bd
000002d0: a295 abbd c37a 5b3d 0901 1d3e 3426 5ebc
000002e0: fb17 8abd fb8f b73c 2f0d 5a3d 23b7 cfbc
000002f0: 67cc a1bc f3ee e33b 5f56 e33c 3423 ea3d
00000300: 8c3c 5d3d 95c4 623d 9131 6a3c 600a c73b
00000310: b0c7 cfbb 1a49 033d 0b0c dcbd 18a3 fdbd
00000320: 2957 ccbd d126 f9bc a5ed 973d 9117 e13c
00000330: ae88 953d 79b2 bebd 0223 0cbe 3a44 2d3b
00000340: 80ef cb3b 329b e8bd f893 31be 11c3 25be
00000350: 8012 b7bd 18fc 54bc a568 7f3c f9ab 133d
00000360: 5791 413e 6798 6abc 5ca9 a23c d927 2bbd
00000370: 2b30 a3bd dcc2 b03d 62db cc3b 7f98 8ebd
00000380: 4df0 8fbd ce9e b7bd a8e4 04bd dcc0 c1bd
00000390: b9f4 99bd f6f4 eabc 2f15 4bbc 614c 0dbe
000003a0: d0a3 d1bc 2222 f6bd 1b41 fbbc 011a 2abd
000003b0: 1d10 4d3d 166d 003e 2fbd 873d 755b ab3d
000003c0: 6ff5 3a3c c5fb 8fbd e681 92bd 3889 aebc
000003d0: 1660 8d3d 5935 4bbb 9ec8 03bd a0fa 76bd
000003e0: fa41 2f3c d1a7 5e3e 5e0b 013e 07a7 4f3d
000003f0: f444 893d ab89 c63b d305 633c 4127 5f3d

branch5.0.bias f4 [16]
-0.20937152 -0.21808188 -0.08352132 -0.16638216 0.077914625 0.00067411055 -0.140984 0.018546436
-0.11374682 -0.10756409 -0.15907022 0.09087501 0.043425787 -0.16250443 -0.050824918 -0.005048736
00000000: 7d65 56be db50 5fbe 3a0d abbd 1660 2abe
00000010: b491 9f3d cbb6 303a 1c5e 10be b2ee 973c
00000020: 18f4 e8bd 904a dcbd 4ee3 22be ad1c ba3d
00000030: 3ddf 313d 9067 26be ca2d 50bd de6f a5bb
